{"backend": "tensorflow", "config": {"name": "resnet", "layers": [{"name": "input_1", "inbound_nodes": [], "config": {"name": "input_1", "dtype": "float32", "batch_input_shape": [null, 64, 64, 3], "sparse": false}, "class_name": "InputLayer"}, {"name": "batch_normalization_1", "inbound_nodes": [[["input_1", 0, 0, {}]]], "config": {"momentum": 0.9, "gamma_initializer": {"config": {}, "class_name": "Ones"}, "center": true, "epsilon": 2e-05, "beta_regularizer": null, "axis": -1, "moving_mean_initializer": {"config": {}, "class_name": "Zeros"}, "name": "batch_normalization_1", "beta_initializer": {"config": {}, "class_name": "Zeros"}, "moving_variance_initializer": {"config": {}, "class_name": "Ones"}, "beta_constraint": null, "trainable": true, "gamma_constraint": null, "scale": true, "gamma_regularizer": null}, "class_name": "BatchNormalization"}, {"name": "conv2d_1", "inbound_nodes": [[["batch_normalization_1", 0, 0, {}]]], "config": {"name": "conv2d_1", "kernel_constraint": null, "activation": "linear", "bias_initializer": {"config": {}, "class_name": "Zeros"}, "bias_constraint": null, "data_format": "channels_last", "use_bias": false, "strides": [1, 1], "kernel_initializer": {"config": {"mode": "fan_avg", "seed": null, "scale": 1.0, "distribution": "uniform"}, "class_name": "VarianceScaling"}, "activity_regularizer": null, "bias_regularizer": null, "dilation_rate": [1, 1], "kernel_regularizer": {"config": {"l1": 0.0, "l2": 0.0005000000237487257}, "class_name": "L1L2"}, "trainable": true, "padding": "same", "kernel_size": [5, 5], "filters": 64}, "class_name": "Conv2D"}, {"name": "batch_normalization_2", "inbound_nodes": [[["conv2d_1", 0, 0, {}]]], "config": {"momentum": 0.9, "gamma_initializer": {"config": {}, "class_name": "Ones"}, "center": true, "epsilon": 2e-05, "beta_regularizer": null, "axis": -1, "moving_mean_initializer": {"config": {}, "class_name": "Zeros"}, "name": "batch_normalization_2", "beta_initializer": {"config": {}, "class_name": "Zeros"}, "moving_variance_initializer": {"config": {}, "class_name": "Ones"}, "beta_constraint": null, "trainable": true, "gamma_constraint": null, "scale": true, "gamma_regularizer": null}, "class_name": "BatchNormalization"}, {"name": "activation_1", "inbound_nodes": [[["batch_normalization_2", 0, 0, {}]]], "config": {"name": "activation_1", "trainable": true, "activation": "relu"}, "class_name": "Activation"}, {"name": "zero_padding2d_1", "inbound_nodes": [[["activation_1", 0, 0, {}]]], "config": {"name": "zero_padding2d_1", "trainable": true, "data_format": "channels_last", "padding": [[1, 1], [1, 1]]}, "class_name": "ZeroPadding2D"}, {"name": "max_pooling2d_1", "inbound_nodes": [[["zero_padding2d_1", 0, 0, {}]]], "config": {"name": "max_pooling2d_1", "trainable": true, "data_format": "channels_last", "pool_size": [3, 3], "strides": [2, 2], "padding": "valid"}, "class_name": "MaxPooling2D"}, {"name": "batch_normalization_3", "inbound_nodes": [[["max_pooling2d_1", 0, 0, {}]]], "config": {"momentum": 0.9, "gamma_initializer": {"config": {}, "class_name": "Ones"}, "center": true, "epsilon": 2e-05, "beta_regularizer": null, "axis": -1, "moving_mean_initializer": {"config": {}, "class_name": "Zeros"}, "name": "batch_normalization_3", "beta_initializer": {"config": {}, "class_name": "Zeros"}, "moving_variance_initializer": {"config": {}, "class_name": "Ones"}, "beta_constraint": null, "trainable": true, "gamma_constraint": null, "scale": true, "gamma_regularizer": null}, "class_name": "BatchNormalization"}, {"name": "activation_2", "inbound_nodes": [[["batch_normalization_3", 0, 0, {}]]], "config": {"name": "activation_2", "trainable": true, "activation": "relu"}, "class_name": "Activation"}, {"name": "conv2d_2", "inbound_nodes": [[["activation_2", 0, 0, {}]]], "config": {"name": "conv2d_2", "kernel_constraint": null, "activation": "linear", "bias_initializer": {"config": {}, "class_name": "Zeros"}, "bias_constraint": null, "data_format": "channels_last", "use_bias": false, "strides": [1, 1], "kernel_initializer": {"config": {"mode": "fan_avg", "seed": null, "scale": 1.0, "distribution": "uniform"}, "class_name": "VarianceScaling"}, "activity_regularizer": null, "bias_regularizer": null, "dilation_rate": [1, 1], "kernel_regularizer": {"config": {"l1": 0.0, "l2": 9.999999747378752e-05}, "class_name": "L1L2"}, "trainable": true, "padding": "valid", "kernel_size": [1, 1], "filters": 32}, "class_name": "Conv2D"}, {"name": "batch_normalization_4", "inbound_nodes": [[["conv2d_2", 0, 0, {}]]], "config": {"momentum": 0.9, "gamma_initializer": {"config": {}, "class_name": "Ones"}, "center": true, "epsilon": 2e-05, "beta_regularizer": null, "axis": -1, "moving_mean_initializer": {"config": {}, "class_name": "Zeros"}, "name": "batch_normalization_4", "beta_initializer": {"config": {}, "class_name": "Zeros"}, "moving_variance_initializer": {"config": {}, "class_name": "Ones"}, "beta_constraint": null, "trainable": true, "gamma_constraint": null, "scale": true, "gamma_regularizer": null}, "class_name": "BatchNormalization"}, {"name": "activation_3", "inbound_nodes": [[["batch_normalization_4", 0, 0, {}]]], "config": {"name": "activation_3", "trainable": true, "activation": "relu"}, "class_name": "Activation"}, {"name": "conv2d_3", "inbound_nodes": [[["activation_3", 0, 0, {}]]], "config": {"name": "conv2d_3", "kernel_constraint": null, "activation": "linear", "bias_initializer": {"config": {}, "class_name": "Zeros"}, "bias_constraint": null, "data_format": "channels_last", "use_bias": false, "strides": [1, 1], "kernel_initializer": {"config": {"mode": "fan_avg", "seed": null, "scale": 1.0, "distribution": "uniform"}, "class_name": "VarianceScaling"}, "activity_regularizer": null, "bias_regularizer": null, "dilation_rate": [1, 1], "kernel_regularizer": {"config": {"l1": 0.0, "l2": 9.999999747378752e-05}, "class_name": "L1L2"}, "trainable": true, "padding": "same", "kernel_size": [3, 3], "filters": 32}, "class_name": "Conv2D"}, {"name": "batch_normalization_5", "inbound_nodes": [[["conv2d_3", 0, 0, {}]]], "config": {"momentum": 0.9, "gamma_initializer": {"config": {}, "class_name": "Ones"}, "center": true, "epsilon": 2e-05, "beta_regularizer": null, "axis": -1, "moving_mean_initializer": {"config": {}, "class_name": "Zeros"}, "name": "batch_normalization_5", "beta_initializer": {"config": {}, "class_name": "Zeros"}, "moving_variance_initializer": {"config": {}, "class_name": "Ones"}, "beta_constraint": null, "trainable": true, "gamma_constraint": null, "scale": true, "gamma_regularizer": null}, "class_name": "BatchNormalization"}, {"name": "activation_4", "inbound_nodes": [[["batch_normalization_5", 0, 0, {}]]], "config": {"name": "activation_4", "trainable": true, "activation": "relu"}, "class_name": "Activation"}, {"name": "conv2d_4", "inbound_nodes": [[["activation_4", 0, 0, {}]]], "config": {"name": "conv2d_4", "kernel_constraint": null, "activation": "linear", "bias_initializer": {"config": {}, "class_name": "Zeros"}, "bias_constraint": null, "data_format": "channels_last", "use_bias": false, "strides": [1, 1], "kernel_initializer": {"config": {"mode": "fan_avg", "seed": null, "scale": 1.0, "distribution": "uniform"}, "class_name": "VarianceScaling"}, "activity_regularizer": null, "bias_regularizer": null, "dilation_rate": [1, 1], "kernel_regularizer": {"config": {"l1": 0.0, "l2": 9.999999747378752e-05}, "class_name": "L1L2"}, "trainable": true, "padding": "valid", "kernel_size": [1, 1], "filters": 128}, "class_name": "Conv2D"}, {"name": "conv2d_5", "inbound_nodes": [[["activation_2", 0, 0, {}]]], "config": {"name": "conv2d_5", "kernel_constraint": null, "activation": "linear", "bias_initializer": {"config": {}, "class_name": "Zeros"}, "bias_constraint": null, "data_format": "channels_last", "use_bias": false, "strides": [1, 1], "kernel_initializer": {"config": {"mode": "fan_avg", "seed": null, "scale": 1.0, "distribution": "uniform"}, "class_name": "VarianceScaling"}, "activity_regularizer": null, "bias_regularizer": null, "dilation_rate": [1, 1], "kernel_regularizer": {"config": {"l1": 0.0, "l2": 9.999999747378752e-05}, "class_name": "L1L2"}, "trainable": true, "padding": "valid", "kernel_size": [1, 1], "filters": 128}, "class_name": "Conv2D"}, {"name": "add_1", "inbound_nodes": [[["conv2d_4", 0, 0, {}], ["conv2d_5", 0, 0, {}]]], "config": {"name": "add_1", "trainable": true}, "class_name": "Add"}, {"name": "batch_normalization_6", "inbound_nodes": [[["add_1", 0, 0, {}]]], "config": {"momentum": 0.9, "gamma_initializer": {"config": {}, "class_name": "Ones"}, "center": true, "epsilon": 2e-05, "beta_regularizer": null, "axis": -1, "moving_mean_initializer": {"config": {}, "class_name": "Zeros"}, "name": "batch_normalization_6", "beta_initializer": {"config": {}, "class_name": "Zeros"}, "moving_variance_initializer": {"config": {}, "class_name": "Ones"}, "beta_constraint": null, "trainable": true, "gamma_constraint": null, "scale": true, "gamma_regularizer": null}, "class_name": "BatchNormalization"}, {"name": "activation_5", "inbound_nodes": [[["batch_normalization_6", 0, 0, {}]]], "config": {"name": "activation_5", "trainable": true, "activation": "relu"}, "class_name": "Activation"}, {"name": "conv2d_6", "inbound_nodes": [[["activation_5", 0, 0, {}]]], "config": {"name": "conv2d_6", "kernel_constraint": null, "activation": "linear", "bias_initializer": {"config": {}, "class_name": "Zeros"}, "bias_constraint": null, "data_format": "channels_last", "use_bias": false, "strides": [1, 1], "kernel_initializer": {"config": {"mode": "fan_avg", "seed": null, "scale": 1.0, "distribution": "uniform"}, "class_name": "VarianceScaling"}, "activity_regularizer": null, "bias_regularizer": null, "dilation_rate": [1, 1], "kernel_regularizer": {"config": {"l1": 0.0, "l2": 9.999999747378752e-05}, "class_name": "L1L2"}, "trainable": true, "padding": "valid", "kernel_size": [1, 1], "filters": 32}, "class_name": "Conv2D"}, {"name": "batch_normalization_7", "inbound_nodes": [[["conv2d_6", 0, 0, {}]]], "config": {"momentum": 0.9, "gamma_initializer": {"config": {}, "class_name": "Ones"}, "center": true, "epsilon": 2e-05, "beta_regularizer": null, "axis": -1, "moving_mean_initializer": {"config": {}, "class_name": "Zeros"}, "name": "batch_normalization_7", "beta_initializer": {"config": {}, "class_name": "Zeros"}, "moving_variance_initializer": {"config": {}, "class_name": "Ones"}, "beta_constraint": null, "trainable": true, "gamma_constraint": null, "scale": true, "gamma_regularizer": null}, "class_name": "BatchNormalization"}, {"name": "activation_6", "inbound_nodes": [[["batch_normalization_7", 0, 0, {}]]], "config": {"name": "activation_6", "trainable": true, "activation": "relu"}, "class_name": "Activation"}, {"name": "conv2d_7", "inbound_nodes": [[["activation_6", 0, 0, {}]]], "config": {"name": "conv2d_7", "kernel_constraint": null, "activation": "linear", "bias_initializer": {"config": {}, "class_name": "Zeros"}, "bias_constraint": null, "data_format": "channels_last", "use_bias": false, "strides": [1, 1], "kernel_initializer": {"config": {"mode": "fan_avg", "seed": null, "scale": 1.0, "distribution": "uniform"}, "class_name": "VarianceScaling"}, "activity_regularizer": null, "bias_regularizer": null, "dilation_rate": [1, 1], "kernel_regularizer": {"config": {"l1": 0.0, "l2": 9.999999747378752e-05}, "class_name": "L1L2"}, "trainable": true, "padding": "same", "kernel_size": [3, 3], "filters": 32}, "class_name": "Conv2D"}, {"name": "batch_normalization_8", "inbound_nodes": [[["conv2d_7", 0, 0, {}]]], "config": {"momentum": 0.9, "gamma_initializer": {"config": {}, "class_name": "Ones"}, "center": true, "epsilon": 2e-05, "beta_regularizer": null, "axis": -1, "moving_mean_initializer": {"config": {}, "class_name": "Zeros"}, "name": "batch_normalization_8", "beta_initializer": {"config": {}, "class_name": "Zeros"}, "moving_variance_initializer": {"config": {}, "class_name": "Ones"}, "beta_constraint": null, "trainable": true, "gamma_constraint": null, "scale": true, "gamma_regularizer": null}, "class_name": "BatchNormalization"}, {"name": "activation_7", "inbound_nodes": [[["batch_normalization_8", 0, 0, {}]]], "config": {"name": "activation_7", "trainable": true, "activation": "relu"}, "class_name": "Activation"}, {"name": "conv2d_8", "inbound_nodes": [[["activation_7", 0, 0, {}]]], "config": {"name": "conv2d_8", "kernel_constraint": null, "activation": "linear", "bias_initializer": {"config": {}, "class_name": "Zeros"}, "bias_constraint": null, "data_format": "channels_last", "use_bias": false, "strides": [1, 1], "kernel_initializer": {"config": {"mode": "fan_avg", "seed": null, "scale": 1.0, "distribution": "uniform"}, "class_name": "VarianceScaling"}, "activity_regularizer": null, "bias_regularizer": null, "dilation_rate": [1, 1], "kernel_regularizer": {"config": {"l1": 0.0, "l2": 9.999999747378752e-05}, "class_name": "L1L2"}, "trainable": true, "padding": "valid", "kernel_size": [1, 1], "filters": 128}, "class_name": "Conv2D"}, {"name": "add_2", "inbound_nodes": [[["conv2d_8", 0, 0, {}], ["add_1", 0, 0, {}]]], "config": {"name": "add_2", "trainable": true}, "class_name": "Add"}, {"name": "batch_normalization_9", "inbound_nodes": [[["add_2", 0, 0, {}]]], "config": {"momentum": 0.9, "gamma_initializer": {"config": {}, "class_name": "Ones"}, "center": true, "epsilon": 2e-05, "beta_regularizer": null, "axis": -1, "moving_mean_initializer": {"config": {}, "class_name": "Zeros"}, "name": "batch_normalization_9", "beta_initializer": {"config": {}, "class_name": "Zeros"}, "moving_variance_initializer": {"config": {}, "class_name": "Ones"}, "beta_constraint": null, "trainable": true, "gamma_constraint": null, "scale": true, "gamma_regularizer": null}, "class_name": "BatchNormalization"}, {"name": "activation_8", "inbound_nodes": [[["batch_normalization_9", 0, 0, {}]]], "config": {"name": "activation_8", "trainable": true, "activation": "relu"}, "class_name": "Activation"}, {"name": "conv2d_9", "inbound_nodes": [[["activation_8", 0, 0, {}]]], "config": {"name": "conv2d_9", "kernel_constraint": null, "activation": "linear", "bias_initializer": {"config": {}, "class_name": "Zeros"}, "bias_constraint": null, "data_format": "channels_last", "use_bias": false, "strides": [1, 1], "kernel_initializer": {"config": {"mode": "fan_avg", "seed": null, "scale": 1.0, "distribution": "uniform"}, "class_name": "VarianceScaling"}, "activity_regularizer": null, "bias_regularizer": null, "dilation_rate": [1, 1], "kernel_regularizer": {"config": {"l1": 0.0, "l2": 9.999999747378752e-05}, "class_name": "L1L2"}, "trainable": true, "padding": "valid", "kernel_size": [1, 1], "filters": 32}, "class_name": "Conv2D"}, {"name": "batch_normalization_10", "inbound_nodes": [[["conv2d_9", 0, 0, {}]]], "config": {"momentum": 0.9, "gamma_initializer": {"config": {}, "class_name": "Ones"}, "center": true, "epsilon": 2e-05, "beta_regularizer": null, "axis": -1, "moving_mean_initializer": {"config": {}, "class_name": "Zeros"}, "name": "batch_normalization_10", "beta_initializer": {"config": {}, "class_name": "Zeros"}, "moving_variance_initializer": {"config": {}, "class_name": "Ones"}, "beta_constraint": null, "trainable": true, "gamma_constraint": null, "scale": true, "gamma_regularizer": null}, "class_name": "BatchNormalization"}, {"name": "activation_9", "inbound_nodes": [[["batch_normalization_10", 0, 0, {}]]], "config": {"name": "activation_9", "trainable": true, "activation": "relu"}, "class_name": "Activation"}, {"name": "conv2d_10", "inbound_nodes": [[["activation_9", 0, 0, {}]]], "config": {"name": "conv2d_10", "kernel_constraint": null, "activation": "linear", "bias_initializer": {"config": {}, "class_name": "Zeros"}, "bias_constraint": null, "data_format": "channels_last", "use_bias": false, "strides": [1, 1], "kernel_initializer": {"config": {"mode": "fan_avg", "seed": null, "scale": 1.0, "distribution": "uniform"}, "class_name": "VarianceScaling"}, "activity_regularizer": null, "bias_regularizer": null, "dilation_rate": [1, 1], "kernel_regularizer": {"config": {"l1": 0.0, "l2": 9.999999747378752e-05}, "class_name": "L1L2"}, "trainable": true, "padding": "same", "kernel_size": [3, 3], "filters": 32}, "class_name": "Conv2D"}, {"name": "batch_normalization_11", "inbound_nodes": [[["conv2d_10", 0, 0, {}]]], "config": {"momentum": 0.9, "gamma_initializer": {"config": {}, "class_name": "Ones"}, "center": true, "epsilon": 2e-05, "beta_regularizer": null, "axis": -1, "moving_mean_initializer": {"config": {}, "class_name": "Zeros"}, "name": "batch_normalization_11", "beta_initializer": {"config": {}, "class_name": "Zeros"}, "moving_variance_initializer": {"config": {}, "class_name": "Ones"}, "beta_constraint": null, "trainable": true, "gamma_constraint": null, "scale": true, "gamma_regularizer": null}, "class_name": "BatchNormalization"}, {"name": "activation_10", "inbound_nodes": [[["batch_normalization_11", 0, 0, {}]]], "config": {"name": "activation_10", "trainable": true, "activation": "relu"}, "class_name": "Activation"}, {"name": "conv2d_11", "inbound_nodes": [[["activation_10", 0, 0, {}]]], "config": {"name": "conv2d_11", "kernel_constraint": null, "activation": "linear", "bias_initializer": {"config": {}, "class_name": "Zeros"}, "bias_constraint": null, "data_format": "channels_last", "use_bias": false, "strides": [1, 1], "kernel_initializer": {"config": {"mode": "fan_avg", "seed": null, "scale": 1.0, "distribution": "uniform"}, "class_name": "VarianceScaling"}, "activity_regularizer": null, "bias_regularizer": null, "dilation_rate": [1, 1], "kernel_regularizer": {"config": {"l1": 0.0, "l2": 9.999999747378752e-05}, "class_name": "L1L2"}, "trainable": true, "padding": "valid", "kernel_size": [1, 1], "filters": 128}, "class_name": "Conv2D"}, {"name": "add_3", "inbound_nodes": [[["conv2d_11", 0, 0, {}], ["add_2", 0, 0, {}]]], "config": {"name": "add_3", "trainable": true}, "class_name": "Add"}, {"name": "batch_normalization_12", "inbound_nodes": [[["add_3", 0, 0, {}]]], "config": {"momentum": 0.9, "gamma_initializer": {"config": {}, "class_name": "Ones"}, "center": true, "epsilon": 2e-05, "beta_regularizer": null, "axis": -1, "moving_mean_initializer": {"config": {}, "class_name": "Zeros"}, "name": "batch_normalization_12", "beta_initializer": {"config": {}, "class_name": "Zeros"}, "moving_variance_initializer": {"config": {}, "class_name": "Ones"}, "beta_constraint": null, "trainable": true, "gamma_constraint": null, "scale": true, "gamma_regularizer": null}, "class_name": "BatchNormalization"}, {"name": "activation_11", "inbound_nodes": [[["batch_normalization_12", 0, 0, {}]]], "config": {"name": "activation_11", "trainable": true, "activation": "relu"}, "class_name": "Activation"}, {"name": "conv2d_12", "inbound_nodes": [[["activation_11", 0, 0, {}]]], "config": {"name": "conv2d_12", "kernel_constraint": null, "activation": "linear", "bias_initializer": {"config": {}, "class_name": "Zeros"}, "bias_constraint": null, "data_format": "channels_last", "use_bias": false, "strides": [1, 1], "kernel_initializer": {"config": {"mode": "fan_avg", "seed": null, "scale": 1.0, "distribution": "uniform"}, "class_name": "VarianceScaling"}, "activity_regularizer": null, "bias_regularizer": null, "dilation_rate": [1, 1], "kernel_regularizer": {"config": {"l1": 0.0, "l2": 9.999999747378752e-05}, "class_name": "L1L2"}, "trainable": true, "padding": "valid", "kernel_size": [1, 1], "filters": 64}, "class_name": "Conv2D"}, {"name": "batch_normalization_13", "inbound_nodes": [[["conv2d_12", 0, 0, {}]]], "config": {"momentum": 0.9, "gamma_initializer": {"config": {}, "class_name": "Ones"}, "center": true, "epsilon": 2e-05, "beta_regularizer": null, "axis": -1, "moving_mean_initializer": {"config": {}, "class_name": "Zeros"}, "name": "batch_normalization_13", "beta_initializer": {"config": {}, "class_name": "Zeros"}, "moving_variance_initializer": {"config": {}, "class_name": "Ones"}, "beta_constraint": null, "trainable": true, "gamma_constraint": null, "scale": true, "gamma_regularizer": null}, "class_name": "BatchNormalization"}, {"name": "activation_12", "inbound_nodes": [[["batch_normalization_13", 0, 0, {}]]], "config": {"name": "activation_12", "trainable": true, "activation": "relu"}, "class_name": "Activation"}, {"name": "conv2d_13", "inbound_nodes": [[["activation_12", 0, 0, {}]]], "config": {"name": "conv2d_13", "kernel_constraint": null, "activation": "linear", "bias_initializer": {"config": {}, "class_name": "Zeros"}, "bias_constraint": null, "data_format": "channels_last", "use_bias": false, "strides": [2, 2], "kernel_initializer": {"config": {"mode": "fan_avg", "seed": null, "scale": 1.0, "distribution": "uniform"}, "class_name": "VarianceScaling"}, "activity_regularizer": null, "bias_regularizer": null, "dilation_rate": [1, 1], "kernel_regularizer": {"config": {"l1": 0.0, "l2": 9.999999747378752e-05}, "class_name": "L1L2"}, "trainable": true, "padding": "same", "kernel_size": [3, 3], "filters": 64}, "class_name": "Conv2D"}, {"name": "batch_normalization_14", "inbound_nodes": [[["conv2d_13", 0, 0, {}]]], "config": {"momentum": 0.9, "gamma_initializer": {"config": {}, "class_name": "Ones"}, "center": true, "epsilon": 2e-05, "beta_regularizer": null, "axis": -1, "moving_mean_initializer": {"config": {}, "class_name": "Zeros"}, "name": "batch_normalization_14", "beta_initializer": {"config": {}, "class_name": "Zeros"}, "moving_variance_initializer": {"config": {}, "class_name": "Ones"}, "beta_constraint": null, "trainable": true, "gamma_constraint": null, "scale": true, "gamma_regularizer": null}, "class_name": "BatchNormalization"}, {"name": "activation_13", "inbound_nodes": [[["batch_normalization_14", 0, 0, {}]]], "config": {"name": "activation_13", "trainable": true, "activation": "relu"}, "class_name": "Activation"}, {"name": "conv2d_14", "inbound_nodes": [[["activation_13", 0, 0, {}]]], "config": {"name": "conv2d_14", "kernel_constraint": null, "activation": "linear", "bias_initializer": {"config": {}, "class_name": "Zeros"}, "bias_constraint": null, "data_format": "channels_last", "use_bias": false, "strides": [1, 1], "kernel_initializer": {"config": {"mode": "fan_avg", "seed": null, "scale": 1.0, "distribution": "uniform"}, "class_name": "VarianceScaling"}, "activity_regularizer": null, "bias_regularizer": null, "dilation_rate": [1, 1], "kernel_regularizer": {"config": {"l1": 0.0, "l2": 9.999999747378752e-05}, "class_name": "L1L2"}, "trainable": true, "padding": "valid", "kernel_size": [1, 1], "filters": 256}, "class_name": "Conv2D"}, {"name": "conv2d_15", "inbound_nodes": [[["activation_11", 0, 0, {}]]], "config": {"name": "conv2d_15", "kernel_constraint": null, "activation": "linear", "bias_initializer": {"config": {}, "class_name": "Zeros"}, "bias_constraint": null, "data_format": "channels_last", "use_bias": false, "strides": [2, 2], "kernel_initializer": {"config": {"mode": "fan_avg", "seed": null, "scale": 1.0, "distribution": "uniform"}, "class_name": "VarianceScaling"}, "activity_regularizer": null, "bias_regularizer": null, "dilation_rate": [1, 1], "kernel_regularizer": {"config": {"l1": 0.0, "l2": 9.999999747378752e-05}, "class_name": "L1L2"}, "trainable": true, "padding": "valid", "kernel_size": [1, 1], "filters": 256}, "class_name": "Conv2D"}, {"name": "add_4", "inbound_nodes": [[["conv2d_14", 0, 0, {}], ["conv2d_15", 0, 0, {}]]], "config": {"name": "add_4", "trainable": true}, "class_name": "Add"}, {"name": "batch_normalization_15", "inbound_nodes": [[["add_4", 0, 0, {}]]], "config": {"momentum": 0.9, "gamma_initializer": {"config": {}, "class_name": "Ones"}, "center": true, "epsilon": 2e-05, "beta_regularizer": null, "axis": -1, "moving_mean_initializer": {"config": {}, "class_name": "Zeros"}, "name": "batch_normalization_15", "beta_initializer": {"config": {}, "class_name": "Zeros"}, "moving_variance_initializer": {"config": {}, "class_name": "Ones"}, "beta_constraint": null, "trainable": true, "gamma_constraint": null, "scale": true, "gamma_regularizer": null}, "class_name": "BatchNormalization"}, {"name": "activation_14", "inbound_nodes": [[["batch_normalization_15", 0, 0, {}]]], "config": {"name": "activation_14", "trainable": true, "activation": "relu"}, "class_name": "Activation"}, {"name": "conv2d_16", "inbound_nodes": [[["activation_14", 0, 0, {}]]], "config": {"name": "conv2d_16", "kernel_constraint": null, "activation": "linear", "bias_initializer": {"config": {}, "class_name": "Zeros"}, "bias_constraint": null, "data_format": "channels_last", "use_bias": false, "strides": [1, 1], "kernel_initializer": {"config": {"mode": "fan_avg", "seed": null, "scale": 1.0, "distribution": "uniform"}, "class_name": "VarianceScaling"}, "activity_regularizer": null, "bias_regularizer": null, "dilation_rate": [1, 1], "kernel_regularizer": {"config": {"l1": 0.0, "l2": 9.999999747378752e-05}, "class_name": "L1L2"}, "trainable": true, "padding": "valid", "kernel_size": [1, 1], "filters": 64}, "class_name": "Conv2D"}, {"name": "batch_normalization_16", "inbound_nodes": [[["conv2d_16", 0, 0, {}]]], "config": {"momentum": 0.9, "gamma_initializer": {"config": {}, "class_name": "Ones"}, "center": true, "epsilon": 2e-05, "beta_regularizer": null, "axis": -1, "moving_mean_initializer": {"config": {}, "class_name": "Zeros"}, "name": "batch_normalization_16", "beta_initializer": {"config": {}, "class_name": "Zeros"}, "moving_variance_initializer": {"config": {}, "class_name": "Ones"}, "beta_constraint": null, "trainable": true, "gamma_constraint": null, "scale": true, "gamma_regularizer": null}, "class_name": "BatchNormalization"}, {"name": "activation_15", "inbound_nodes": [[["batch_normalization_16", 0, 0, {}]]], "config": {"name": "activation_15", "trainable": true, "activation": "relu"}, "class_name": "Activation"}, {"name": "conv2d_17", "inbound_nodes": [[["activation_15", 0, 0, {}]]], "config": {"name": "conv2d_17", "kernel_constraint": null, "activation": "linear", "bias_initializer": {"config": {}, "class_name": "Zeros"}, "bias_constraint": null, "data_format": "channels_last", "use_bias": false, "strides": [1, 1], "kernel_initializer": {"config": {"mode": "fan_avg", "seed": null, "scale": 1.0, "distribution": "uniform"}, "class_name": "VarianceScaling"}, "activity_regularizer": null, "bias_regularizer": null, "dilation_rate": [1, 1], "kernel_regularizer": {"config": {"l1": 0.0, "l2": 9.999999747378752e-05}, "class_name": "L1L2"}, "trainable": true, "padding": "same", "kernel_size": [3, 3], "filters": 64}, "class_name": "Conv2D"}, {"name": "batch_normalization_17", "inbound_nodes": [[["conv2d_17", 0, 0, {}]]], "config": {"momentum": 0.9, "gamma_initializer": {"config": {}, "class_name": "Ones"}, "center": true, "epsilon": 2e-05, "beta_regularizer": null, "axis": -1, "moving_mean_initializer": {"config": {}, "class_name": "Zeros"}, "name": "batch_normalization_17", "beta_initializer": {"config": {}, "class_name": "Zeros"}, "moving_variance_initializer": {"config": {}, "class_name": "Ones"}, "beta_constraint": null, "trainable": true, "gamma_constraint": null, "scale": true, "gamma_regularizer": null}, "class_name": "BatchNormalization"}, {"name": "activation_16", "inbound_nodes": [[["batch_normalization_17", 0, 0, {}]]], "config": {"name": "activation_16", "trainable": true, "activation": "relu"}, "class_name": "Activation"}, {"name": "conv2d_18", "inbound_nodes": [[["activation_16", 0, 0, {}]]], "config": {"name": "conv2d_18", "kernel_constraint": null, "activation": "linear", "bias_initializer": {"config": {}, "class_name": "Zeros"}, "bias_constraint": null, "data_format": "channels_last", "use_bias": false, "strides": [1, 1], "kernel_initializer": {"config": {"mode": "fan_avg", "seed": null, "scale": 1.0, "distribution": "uniform"}, "class_name": "VarianceScaling"}, "activity_regularizer": null, "bias_regularizer": null, "dilation_rate": [1, 1], "kernel_regularizer": {"config": {"l1": 0.0, "l2": 9.999999747378752e-05}, "class_name": "L1L2"}, "trainable": true, "padding": "valid", "kernel_size": [1, 1], "filters": 256}, "class_name": "Conv2D"}, {"name": "add_5", "inbound_nodes": [[["conv2d_18", 0, 0, {}], ["add_4", 0, 0, {}]]], "config": {"name": "add_5", "trainable": true}, "class_name": "Add"}, {"name": "batch_normalization_18", "inbound_nodes": [[["add_5", 0, 0, {}]]], "config": {"momentum": 0.9, "gamma_initializer": {"config": {}, "class_name": "Ones"}, "center": true, "epsilon": 2e-05, "beta_regularizer": null, "axis": -1, "moving_mean_initializer": {"config": {}, "class_name": "Zeros"}, "name": "batch_normalization_18", "beta_initializer": {"config": {}, "class_name": "Zeros"}, "moving_variance_initializer": {"config": {}, "class_name": "Ones"}, "beta_constraint": null, "trainable": true, "gamma_constraint": null, "scale": true, "gamma_regularizer": null}, "class_name": "BatchNormalization"}, {"name": "activation_17", "inbound_nodes": [[["batch_normalization_18", 0, 0, {}]]], "config": {"name": "activation_17", "trainable": true, "activation": "relu"}, "class_name": "Activation"}, {"name": "conv2d_19", "inbound_nodes": [[["activation_17", 0, 0, {}]]], "config": {"name": "conv2d_19", "kernel_constraint": null, "activation": "linear", "bias_initializer": {"config": {}, "class_name": "Zeros"}, "bias_constraint": null, "data_format": "channels_last", "use_bias": false, "strides": [1, 1], "kernel_initializer": {"config": {"mode": "fan_avg", "seed": null, "scale": 1.0, "distribution": "uniform"}, "class_name": "VarianceScaling"}, "activity_regularizer": null, "bias_regularizer": null, "dilation_rate": [1, 1], "kernel_regularizer": {"config": {"l1": 0.0, "l2": 9.999999747378752e-05}, "class_name": "L1L2"}, "trainable": true, "padding": "valid", "kernel_size": [1, 1], "filters": 64}, "class_name": "Conv2D"}, {"name": "batch_normalization_19", "inbound_nodes": [[["conv2d_19", 0, 0, {}]]], "config": {"momentum": 0.9, "gamma_initializer": {"config": {}, "class_name": "Ones"}, "center": true, "epsilon": 2e-05, "beta_regularizer": null, "axis": -1, "moving_mean_initializer": {"config": {}, "class_name": "Zeros"}, "name": "batch_normalization_19", "beta_initializer": {"config": {}, "class_name": "Zeros"}, "moving_variance_initializer": {"config": {}, "class_name": "Ones"}, "beta_constraint": null, "trainable": true, "gamma_constraint": null, "scale": true, "gamma_regularizer": null}, "class_name": "BatchNormalization"}, {"name": "activation_18", "inbound_nodes": [[["batch_normalization_19", 0, 0, {}]]], "config": {"name": "activation_18", "trainable": true, "activation": "relu"}, "class_name": "Activation"}, {"name": "conv2d_20", "inbound_nodes": [[["activation_18", 0, 0, {}]]], "config": {"name": "conv2d_20", "kernel_constraint": null, "activation": "linear", "bias_initializer": {"config": {}, "class_name": "Zeros"}, "bias_constraint": null, "data_format": "channels_last", "use_bias": false, "strides": [1, 1], "kernel_initializer": {"config": {"mode": "fan_avg", "seed": null, "scale": 1.0, "distribution": "uniform"}, "class_name": "VarianceScaling"}, "activity_regularizer": null, "bias_regularizer": null, "dilation_rate": [1, 1], "kernel_regularizer": {"config": {"l1": 0.0, "l2": 9.999999747378752e-05}, "class_name": "L1L2"}, "trainable": true, "padding": "same", "kernel_size": [3, 3], "filters": 64}, "class_name": "Conv2D"}, {"name": "batch_normalization_20", "inbound_nodes": [[["conv2d_20", 0, 0, {}]]], "config": {"momentum": 0.9, "gamma_initializer": {"config": {}, "class_name": "Ones"}, "center": true, "epsilon": 2e-05, "beta_regularizer": null, "axis": -1, "moving_mean_initializer": {"config": {}, "class_name": "Zeros"}, "name": "batch_normalization_20", "beta_initializer": {"config": {}, "class_name": "Zeros"}, "moving_variance_initializer": {"config": {}, "class_name": "Ones"}, "beta_constraint": null, "trainable": true, "gamma_constraint": null, "scale": true, "gamma_regularizer": null}, "class_name": "BatchNormalization"}, {"name": "activation_19", "inbound_nodes": [[["batch_normalization_20", 0, 0, {}]]], "config": {"name": "activation_19", "trainable": true, "activation": "relu"}, "class_name": "Activation"}, {"name": "conv2d_21", "inbound_nodes": [[["activation_19", 0, 0, {}]]], "config": {"name": "conv2d_21", "kernel_constraint": null, "activation": "linear", "bias_initializer": {"config": {}, "class_name": "Zeros"}, "bias_constraint": null, "data_format": "channels_last", "use_bias": false, "strides": [1, 1], "kernel_initializer": {"config": {"mode": "fan_avg", "seed": null, "scale": 1.0, "distribution": "uniform"}, "class_name": "VarianceScaling"}, "activity_regularizer": null, "bias_regularizer": null, "dilation_rate": [1, 1], "kernel_regularizer": {"config": {"l1": 0.0, "l2": 9.999999747378752e-05}, "class_name": "L1L2"}, "trainable": true, "padding": "valid", "kernel_size": [1, 1], "filters": 256}, "class_name": "Conv2D"}, {"name": "add_6", "inbound_nodes": [[["conv2d_21", 0, 0, {}], ["add_5", 0, 0, {}]]], "config": {"name": "add_6", "trainable": true}, "class_name": "Add"}, {"name": "batch_normalization_21", "inbound_nodes": [[["add_6", 0, 0, {}]]], "config": {"momentum": 0.9, "gamma_initializer": {"config": {}, "class_name": "Ones"}, "center": true, "epsilon": 2e-05, "beta_regularizer": null, "axis": -1, "moving_mean_initializer": {"config": {}, "class_name": "Zeros"}, "name": "batch_normalization_21", "beta_initializer": {"config": {}, "class_name": "Zeros"}, "moving_variance_initializer": {"config": {}, "class_name": "Ones"}, "beta_constraint": null, "trainable": true, "gamma_constraint": null, "scale": true, "gamma_regularizer": null}, "class_name": "BatchNormalization"}, {"name": "activation_20", "inbound_nodes": [[["batch_normalization_21", 0, 0, {}]]], "config": {"name": "activation_20", "trainable": true, "activation": "relu"}, "class_name": "Activation"}, {"name": "conv2d_22", "inbound_nodes": [[["activation_20", 0, 0, {}]]], "config": {"name": "conv2d_22", "kernel_constraint": null, "activation": "linear", "bias_initializer": {"config": {}, "class_name": "Zeros"}, "bias_constraint": null, "data_format": "channels_last", "use_bias": false, "strides": [1, 1], "kernel_initializer": {"config": {"mode": "fan_avg", "seed": null, "scale": 1.0, "distribution": "uniform"}, "class_name": "VarianceScaling"}, "activity_regularizer": null, "bias_regularizer": null, "dilation_rate": [1, 1], "kernel_regularizer": {"config": {"l1": 0.0, "l2": 9.999999747378752e-05}, "class_name": "L1L2"}, "trainable": true, "padding": "valid", "kernel_size": [1, 1], "filters": 64}, "class_name": "Conv2D"}, {"name": "batch_normalization_22", "inbound_nodes": [[["conv2d_22", 0, 0, {}]]], "config": {"momentum": 0.9, "gamma_initializer": {"config": {}, "class_name": "Ones"}, "center": true, "epsilon": 2e-05, "beta_regularizer": null, "axis": -1, "moving_mean_initializer": {"config": {}, "class_name": "Zeros"}, "name": "batch_normalization_22", "beta_initializer": {"config": {}, "class_name": "Zeros"}, "moving_variance_initializer": {"config": {}, "class_name": "Ones"}, "beta_constraint": null, "trainable": true, "gamma_constraint": null, "scale": true, "gamma_regularizer": null}, "class_name": "BatchNormalization"}, {"name": "activation_21", "inbound_nodes": [[["batch_normalization_22", 0, 0, {}]]], "config": {"name": "activation_21", "trainable": true, "activation": "relu"}, "class_name": "Activation"}, {"name": "conv2d_23", "inbound_nodes": [[["activation_21", 0, 0, {}]]], "config": {"name": "conv2d_23", "kernel_constraint": null, "activation": "linear", "bias_initializer": {"config": {}, "class_name": "Zeros"}, "bias_constraint": null, "data_format": "channels_last", "use_bias": false, "strides": [1, 1], "kernel_initializer": {"config": {"mode": "fan_avg", "seed": null, "scale": 1.0, "distribution": "uniform"}, "class_name": "VarianceScaling"}, "activity_regularizer": null, "bias_regularizer": null, "dilation_rate": [1, 1], "kernel_regularizer": {"config": {"l1": 0.0, "l2": 9.999999747378752e-05}, "class_name": "L1L2"}, "trainable": true, "padding": "same", "kernel_size": [3, 3], "filters": 64}, "class_name": "Conv2D"}, {"name": "batch_normalization_23", "inbound_nodes": [[["conv2d_23", 0, 0, {}]]], "config": {"momentum": 0.9, "gamma_initializer": {"config": {}, "class_name": "Ones"}, "center": true, "epsilon": 2e-05, "beta_regularizer": null, "axis": -1, "moving_mean_initializer": {"config": {}, "class_name": "Zeros"}, "name": "batch_normalization_23", "beta_initializer": {"config": {}, "class_name": "Zeros"}, "moving_variance_initializer": {"config": {}, "class_name": "Ones"}, "beta_constraint": null, "trainable": true, "gamma_constraint": null, "scale": true, "gamma_regularizer": null}, "class_name": "BatchNormalization"}, {"name": "activation_22", "inbound_nodes": [[["batch_normalization_23", 0, 0, {}]]], "config": {"name": "activation_22", "trainable": true, "activation": "relu"}, "class_name": "Activation"}, {"name": "conv2d_24", "inbound_nodes": [[["activation_22", 0, 0, {}]]], "config": {"name": "conv2d_24", "kernel_constraint": null, "activation": "linear", "bias_initializer": {"config": {}, "class_name": "Zeros"}, "bias_constraint": null, "data_format": "channels_last", "use_bias": false, "strides": [1, 1], "kernel_initializer": {"config": {"mode": "fan_avg", "seed": null, "scale": 1.0, "distribution": "uniform"}, "class_name": "VarianceScaling"}, "activity_regularizer": null, "bias_regularizer": null, "dilation_rate": [1, 1], "kernel_regularizer": {"config": {"l1": 0.0, "l2": 9.999999747378752e-05}, "class_name": "L1L2"}, "trainable": true, "padding": "valid", "kernel_size": [1, 1], "filters": 256}, "class_name": "Conv2D"}, {"name": "add_7", "inbound_nodes": [[["conv2d_24", 0, 0, {}], ["add_6", 0, 0, {}]]], "config": {"name": "add_7", "trainable": true}, "class_name": "Add"}, {"name": "batch_normalization_24", "inbound_nodes": [[["add_7", 0, 0, {}]]], "config": {"momentum": 0.9, "gamma_initializer": {"config": {}, "class_name": "Ones"}, "center": true, "epsilon": 2e-05, "beta_regularizer": null, "axis": -1, "moving_mean_initializer": {"config": {}, "class_name": "Zeros"}, "name": "batch_normalization_24", "beta_initializer": {"config": {}, "class_name": "Zeros"}, "moving_variance_initializer": {"config": {}, "class_name": "Ones"}, "beta_constraint": null, "trainable": true, "gamma_constraint": null, "scale": true, "gamma_regularizer": null}, "class_name": "BatchNormalization"}, {"name": "activation_23", "inbound_nodes": [[["batch_normalization_24", 0, 0, {}]]], "config": {"name": "activation_23", "trainable": true, "activation": "relu"}, "class_name": "Activation"}, {"name": "conv2d_25", "inbound_nodes": [[["activation_23", 0, 0, {}]]], "config": {"name": "conv2d_25", "kernel_constraint": null, "activation": "linear", "bias_initializer": {"config": {}, "class_name": "Zeros"}, "bias_constraint": null, "data_format": "channels_last", "use_bias": false, "strides": [1, 1], "kernel_initializer": {"config": {"mode": "fan_avg", "seed": null, "scale": 1.0, "distribution": "uniform"}, "class_name": "VarianceScaling"}, "activity_regularizer": null, "bias_regularizer": null, "dilation_rate": [1, 1], "kernel_regularizer": {"config": {"l1": 0.0, "l2": 9.999999747378752e-05}, "class_name": "L1L2"}, "trainable": true, "padding": "valid", "kernel_size": [1, 1], "filters": 128}, "class_name": "Conv2D"}, {"name": "batch_normalization_25", "inbound_nodes": [[["conv2d_25", 0, 0, {}]]], "config": {"momentum": 0.9, "gamma_initializer": {"config": {}, "class_name": "Ones"}, "center": true, "epsilon": 2e-05, "beta_regularizer": null, "axis": -1, "moving_mean_initializer": {"config": {}, "class_name": "Zeros"}, "name": "batch_normalization_25", "beta_initializer": {"config": {}, "class_name": "Zeros"}, "moving_variance_initializer": {"config": {}, "class_name": "Ones"}, "beta_constraint": null, "trainable": true, "gamma_constraint": null, "scale": true, "gamma_regularizer": null}, "class_name": "BatchNormalization"}, {"name": "activation_24", "inbound_nodes": [[["batch_normalization_25", 0, 0, {}]]], "config": {"name": "activation_24", "trainable": true, "activation": "relu"}, "class_name": "Activation"}, {"name": "conv2d_26", "inbound_nodes": [[["activation_24", 0, 0, {}]]], "config": {"name": "conv2d_26", "kernel_constraint": null, "activation": "linear", "bias_initializer": {"config": {}, "class_name": "Zeros"}, "bias_constraint": null, "data_format": "channels_last", "use_bias": false, "strides": [2, 2], "kernel_initializer": {"config": {"mode": "fan_avg", "seed": null, "scale": 1.0, "distribution": "uniform"}, "class_name": "VarianceScaling"}, "activity_regularizer": null, "bias_regularizer": null, "dilation_rate": [1, 1], "kernel_regularizer": {"config": {"l1": 0.0, "l2": 9.999999747378752e-05}, "class_name": "L1L2"}, "trainable": true, "padding": "same", "kernel_size": [3, 3], "filters": 128}, "class_name": "Conv2D"}, {"name": "batch_normalization_26", "inbound_nodes": [[["conv2d_26", 0, 0, {}]]], "config": {"momentum": 0.9, "gamma_initializer": {"config": {}, "class_name": "Ones"}, "center": true, "epsilon": 2e-05, "beta_regularizer": null, "axis": -1, "moving_mean_initializer": {"config": {}, "class_name": "Zeros"}, "name": "batch_normalization_26", "beta_initializer": {"config": {}, "class_name": "Zeros"}, "moving_variance_initializer": {"config": {}, "class_name": "Ones"}, "beta_constraint": null, "trainable": true, "gamma_constraint": null, "scale": true, "gamma_regularizer": null}, "class_name": "BatchNormalization"}, {"name": "activation_25", "inbound_nodes": [[["batch_normalization_26", 0, 0, {}]]], "config": {"name": "activation_25", "trainable": true, "activation": "relu"}, "class_name": "Activation"}, {"name": "conv2d_27", "inbound_nodes": [[["activation_25", 0, 0, {}]]], "config": {"name": "conv2d_27", "kernel_constraint": null, "activation": "linear", "bias_initializer": {"config": {}, "class_name": "Zeros"}, "bias_constraint": null, "data_format": "channels_last", "use_bias": false, "strides": [1, 1], "kernel_initializer": {"config": {"mode": "fan_avg", "seed": null, "scale": 1.0, "distribution": "uniform"}, "class_name": "VarianceScaling"}, "activity_regularizer": null, "bias_regularizer": null, "dilation_rate": [1, 1], "kernel_regularizer": {"config": {"l1": 0.0, "l2": 9.999999747378752e-05}, "class_name": "L1L2"}, "trainable": true, "padding": "valid", "kernel_size": [1, 1], "filters": 512}, "class_name": "Conv2D"}, {"name": "conv2d_28", "inbound_nodes": [[["activation_23", 0, 0, {}]]], "config": {"name": "conv2d_28", "kernel_constraint": null, "activation": "linear", "bias_initializer": {"config": {}, "class_name": "Zeros"}, "bias_constraint": null, "data_format": "channels_last", "use_bias": false, "strides": [2, 2], "kernel_initializer": {"config": {"mode": "fan_avg", "seed": null, "scale": 1.0, "distribution": "uniform"}, "class_name": "VarianceScaling"}, "activity_regularizer": null, "bias_regularizer": null, "dilation_rate": [1, 1], "kernel_regularizer": {"config": {"l1": 0.0, "l2": 9.999999747378752e-05}, "class_name": "L1L2"}, "trainable": true, "padding": "valid", "kernel_size": [1, 1], "filters": 512}, "class_name": "Conv2D"}, {"name": "add_8", "inbound_nodes": [[["conv2d_27", 0, 0, {}], ["conv2d_28", 0, 0, {}]]], "config": {"name": "add_8", "trainable": true}, "class_name": "Add"}, {"name": "batch_normalization_27", "inbound_nodes": [[["add_8", 0, 0, {}]]], "config": {"momentum": 0.9, "gamma_initializer": {"config": {}, "class_name": "Ones"}, "center": true, "epsilon": 2e-05, "beta_regularizer": null, "axis": -1, "moving_mean_initializer": {"config": {}, "class_name": "Zeros"}, "name": "batch_normalization_27", "beta_initializer": {"config": {}, "class_name": "Zeros"}, "moving_variance_initializer": {"config": {}, "class_name": "Ones"}, "beta_constraint": null, "trainable": true, "gamma_constraint": null, "scale": true, "gamma_regularizer": null}, "class_name": "BatchNormalization"}, {"name": "activation_26", "inbound_nodes": [[["batch_normalization_27", 0, 0, {}]]], "config": {"name": "activation_26", "trainable": true, "activation": "relu"}, "class_name": "Activation"}, {"name": "conv2d_29", "inbound_nodes": [[["activation_26", 0, 0, {}]]], "config": {"name": "conv2d_29", "kernel_constraint": null, "activation": "linear", "bias_initializer": {"config": {}, "class_name": "Zeros"}, "bias_constraint": null, "data_format": "channels_last", "use_bias": false, "strides": [1, 1], "kernel_initializer": {"config": {"mode": "fan_avg", "seed": null, "scale": 1.0, "distribution": "uniform"}, "class_name": "VarianceScaling"}, "activity_regularizer": null, "bias_regularizer": null, "dilation_rate": [1, 1], "kernel_regularizer": {"config": {"l1": 0.0, "l2": 9.999999747378752e-05}, "class_name": "L1L2"}, "trainable": true, "padding": "valid", "kernel_size": [1, 1], "filters": 128}, "class_name": "Conv2D"}, {"name": "batch_normalization_28", "inbound_nodes": [[["conv2d_29", 0, 0, {}]]], "config": {"momentum": 0.9, "gamma_initializer": {"config": {}, "class_name": "Ones"}, "center": true, "epsilon": 2e-05, "beta_regularizer": null, "axis": -1, "moving_mean_initializer": {"config": {}, "class_name": "Zeros"}, "name": "batch_normalization_28", "beta_initializer": {"config": {}, "class_name": "Zeros"}, "moving_variance_initializer": {"config": {}, "class_name": "Ones"}, "beta_constraint": null, "trainable": true, "gamma_constraint": null, "scale": true, "gamma_regularizer": null}, "class_name": "BatchNormalization"}, {"name": "activation_27", "inbound_nodes": [[["batch_normalization_28", 0, 0, {}]]], "config": {"name": "activation_27", "trainable": true, "activation": "relu"}, "class_name": "Activation"}, {"name": "conv2d_30", "inbound_nodes": [[["activation_27", 0, 0, {}]]], "config": {"name": "conv2d_30", "kernel_constraint": null, "activation": "linear", "bias_initializer": {"config": {}, "class_name": "Zeros"}, "bias_constraint": null, "data_format": "channels_last", "use_bias": false, "strides": [1, 1], "kernel_initializer": {"config": {"mode": "fan_avg", "seed": null, "scale": 1.0, "distribution": "uniform"}, "class_name": "VarianceScaling"}, "activity_regularizer": null, "bias_regularizer": null, "dilation_rate": [1, 1], "kernel_regularizer": {"config": {"l1": 0.0, "l2": 9.999999747378752e-05}, "class_name": "L1L2"}, "trainable": true, "padding": "same", "kernel_size": [3, 3], "filters": 128}, "class_name": "Conv2D"}, {"name": "batch_normalization_29", "inbound_nodes": [[["conv2d_30", 0, 0, {}]]], "config": {"momentum": 0.9, "gamma_initializer": {"config": {}, "class_name": "Ones"}, "center": true, "epsilon": 2e-05, "beta_regularizer": null, "axis": -1, "moving_mean_initializer": {"config": {}, "class_name": "Zeros"}, "name": "batch_normalization_29", "beta_initializer": {"config": {}, "class_name": "Zeros"}, "moving_variance_initializer": {"config": {}, "class_name": "Ones"}, "beta_constraint": null, "trainable": true, "gamma_constraint": null, "scale": true, "gamma_regularizer": null}, "class_name": "BatchNormalization"}, {"name": "activation_28", "inbound_nodes": [[["batch_normalization_29", 0, 0, {}]]], "config": {"name": "activation_28", "trainable": true, "activation": "relu"}, "class_name": "Activation"}, {"name": "conv2d_31", "inbound_nodes": [[["activation_28", 0, 0, {}]]], "config": {"name": "conv2d_31", "kernel_constraint": null, "activation": "linear", "bias_initializer": {"config": {}, "class_name": "Zeros"}, "bias_constraint": null, "data_format": "channels_last", "use_bias": false, "strides": [1, 1], "kernel_initializer": {"config": {"mode": "fan_avg", "seed": null, "scale": 1.0, "distribution": "uniform"}, "class_name": "VarianceScaling"}, "activity_regularizer": null, "bias_regularizer": null, "dilation_rate": [1, 1], "kernel_regularizer": {"config": {"l1": 0.0, "l2": 9.999999747378752e-05}, "class_name": "L1L2"}, "trainable": true, "padding": "valid", "kernel_size": [1, 1], "filters": 512}, "class_name": "Conv2D"}, {"name": "add_9", "inbound_nodes": [[["conv2d_31", 0, 0, {}], ["add_8", 0, 0, {}]]], "config": {"name": "add_9", "trainable": true}, "class_name": "Add"}, {"name": "batch_normalization_30", "inbound_nodes": [[["add_9", 0, 0, {}]]], "config": {"momentum": 0.9, "gamma_initializer": {"config": {}, "class_name": "Ones"}, "center": true, "epsilon": 2e-05, "beta_regularizer": null, "axis": -1, "moving_mean_initializer": {"config": {}, "class_name": "Zeros"}, "name": "batch_normalization_30", "beta_initializer": {"config": {}, "class_name": "Zeros"}, "moving_variance_initializer": {"config": {}, "class_name": "Ones"}, "beta_constraint": null, "trainable": true, "gamma_constraint": null, "scale": true, "gamma_regularizer": null}, "class_name": "BatchNormalization"}, {"name": "activation_29", "inbound_nodes": [[["batch_normalization_30", 0, 0, {}]]], "config": {"name": "activation_29", "trainable": true, "activation": "relu"}, "class_name": "Activation"}, {"name": "conv2d_32", "inbound_nodes": [[["activation_29", 0, 0, {}]]], "config": {"name": "conv2d_32", "kernel_constraint": null, "activation": "linear", "bias_initializer": {"config": {}, "class_name": "Zeros"}, "bias_constraint": null, "data_format": "channels_last", "use_bias": false, "strides": [1, 1], "kernel_initializer": {"config": {"mode": "fan_avg", "seed": null, "scale": 1.0, "distribution": "uniform"}, "class_name": "VarianceScaling"}, "activity_regularizer": null, "bias_regularizer": null, "dilation_rate": [1, 1], "kernel_regularizer": {"config": {"l1": 0.0, "l2": 9.999999747378752e-05}, "class_name": "L1L2"}, "trainable": true, "padding": "valid", "kernel_size": [1, 1], "filters": 128}, "class_name": "Conv2D"}, {"name": "batch_normalization_31", "inbound_nodes": [[["conv2d_32", 0, 0, {}]]], "config": {"momentum": 0.9, "gamma_initializer": {"config": {}, "class_name": "Ones"}, "center": true, "epsilon": 2e-05, "beta_regularizer": null, "axis": -1, "moving_mean_initializer": {"config": {}, "class_name": "Zeros"}, "name": "batch_normalization_31", "beta_initializer": {"config": {}, "class_name": "Zeros"}, "moving_variance_initializer": {"config": {}, "class_name": "Ones"}, "beta_constraint": null, "trainable": true, "gamma_constraint": null, "scale": true, "gamma_regularizer": null}, "class_name": "BatchNormalization"}, {"name": "activation_30", "inbound_nodes": [[["batch_normalization_31", 0, 0, {}]]], "config": {"name": "activation_30", "trainable": true, "activation": "relu"}, "class_name": "Activation"}, {"name": "conv2d_33", "inbound_nodes": [[["activation_30", 0, 0, {}]]], "config": {"name": "conv2d_33", "kernel_constraint": null, "activation": "linear", "bias_initializer": {"config": {}, "class_name": "Zeros"}, "bias_constraint": null, "data_format": "channels_last", "use_bias": false, "strides": [1, 1], "kernel_initializer": {"config": {"mode": "fan_avg", "seed": null, "scale": 1.0, "distribution": "uniform"}, "class_name": "VarianceScaling"}, "activity_regularizer": null, "bias_regularizer": null, "dilation_rate": [1, 1], "kernel_regularizer": {"config": {"l1": 0.0, "l2": 9.999999747378752e-05}, "class_name": "L1L2"}, "trainable": true, "padding": "same", "kernel_size": [3, 3], "filters": 128}, "class_name": "Conv2D"}, {"name": "batch_normalization_32", "inbound_nodes": [[["conv2d_33", 0, 0, {}]]], "config": {"momentum": 0.9, "gamma_initializer": {"config": {}, "class_name": "Ones"}, "center": true, "epsilon": 2e-05, "beta_regularizer": null, "axis": -1, "moving_mean_initializer": {"config": {}, "class_name": "Zeros"}, "name": "batch_normalization_32", "beta_initializer": {"config": {}, "class_name": "Zeros"}, "moving_variance_initializer": {"config": {}, "class_name": "Ones"}, "beta_constraint": null, "trainable": true, "gamma_constraint": null, "scale": true, "gamma_regularizer": null}, "class_name": "BatchNormalization"}, {"name": "activation_31", "inbound_nodes": [[["batch_normalization_32", 0, 0, {}]]], "config": {"name": "activation_31", "trainable": true, "activation": "relu"}, "class_name": "Activation"}, {"name": "conv2d_34", "inbound_nodes": [[["activation_31", 0, 0, {}]]], "config": {"name": "conv2d_34", "kernel_constraint": null, "activation": "linear", "bias_initializer": {"config": {}, "class_name": "Zeros"}, "bias_constraint": null, "data_format": "channels_last", "use_bias": false, "strides": [1, 1], "kernel_initializer": {"config": {"mode": "fan_avg", "seed": null, "scale": 1.0, "distribution": "uniform"}, "class_name": "VarianceScaling"}, "activity_regularizer": null, "bias_regularizer": null, "dilation_rate": [1, 1], "kernel_regularizer": {"config": {"l1": 0.0, "l2": 9.999999747378752e-05}, "class_name": "L1L2"}, "trainable": true, "padding": "valid", "kernel_size": [1, 1], "filters": 512}, "class_name": "Conv2D"}, {"name": "add_10", "inbound_nodes": [[["conv2d_34", 0, 0, {}], ["add_9", 0, 0, {}]]], "config": {"name": "add_10", "trainable": true}, "class_name": "Add"}, {"name": "batch_normalization_33", "inbound_nodes": [[["add_10", 0, 0, {}]]], "config": {"momentum": 0.9, "gamma_initializer": {"config": {}, "class_name": "Ones"}, "center": true, "epsilon": 2e-05, "beta_regularizer": null, "axis": -1, "moving_mean_initializer": {"config": {}, "class_name": "Zeros"}, "name": "batch_normalization_33", "beta_initializer": {"config": {}, "class_name": "Zeros"}, "moving_variance_initializer": {"config": {}, "class_name": "Ones"}, "beta_constraint": null, "trainable": true, "gamma_constraint": null, "scale": true, "gamma_regularizer": null}, "class_name": "BatchNormalization"}, {"name": "activation_32", "inbound_nodes": [[["batch_normalization_33", 0, 0, {}]]], "config": {"name": "activation_32", "trainable": true, "activation": "relu"}, "class_name": "Activation"}, {"name": "conv2d_35", "inbound_nodes": [[["activation_32", 0, 0, {}]]], "config": {"name": "conv2d_35", "kernel_constraint": null, "activation": "linear", "bias_initializer": {"config": {}, "class_name": "Zeros"}, "bias_constraint": null, "data_format": "channels_last", "use_bias": false, "strides": [1, 1], "kernel_initializer": {"config": {"mode": "fan_avg", "seed": null, "scale": 1.0, "distribution": "uniform"}, "class_name": "VarianceScaling"}, "activity_regularizer": null, "bias_regularizer": null, "dilation_rate": [1, 1], "kernel_regularizer": {"config": {"l1": 0.0, "l2": 9.999999747378752e-05}, "class_name": "L1L2"}, "trainable": true, "padding": "valid", "kernel_size": [1, 1], "filters": 128}, "class_name": "Conv2D"}, {"name": "batch_normalization_34", "inbound_nodes": [[["conv2d_35", 0, 0, {}]]], "config": {"momentum": 0.9, "gamma_initializer": {"config": {}, "class_name": "Ones"}, "center": true, "epsilon": 2e-05, "beta_regularizer": null, "axis": -1, "moving_mean_initializer": {"config": {}, "class_name": "Zeros"}, "name": "batch_normalization_34", "beta_initializer": {"config": {}, "class_name": "Zeros"}, "moving_variance_initializer": {"config": {}, "class_name": "Ones"}, "beta_constraint": null, "trainable": true, "gamma_constraint": null, "scale": true, "gamma_regularizer": null}, "class_name": "BatchNormalization"}, {"name": "activation_33", "inbound_nodes": [[["batch_normalization_34", 0, 0, {}]]], "config": {"name": "activation_33", "trainable": true, "activation": "relu"}, "class_name": "Activation"}, {"name": "conv2d_36", "inbound_nodes": [[["activation_33", 0, 0, {}]]], "config": {"name": "conv2d_36", "kernel_constraint": null, "activation": "linear", "bias_initializer": {"config": {}, "class_name": "Zeros"}, "bias_constraint": null, "data_format": "channels_last", "use_bias": false, "strides": [1, 1], "kernel_initializer": {"config": {"mode": "fan_avg", "seed": null, "scale": 1.0, "distribution": "uniform"}, "class_name": "VarianceScaling"}, "activity_regularizer": null, "bias_regularizer": null, "dilation_rate": [1, 1], "kernel_regularizer": {"config": {"l1": 0.0, "l2": 9.999999747378752e-05}, "class_name": "L1L2"}, "trainable": true, "padding": "same", "kernel_size": [3, 3], "filters": 128}, "class_name": "Conv2D"}, {"name": "batch_normalization_35", "inbound_nodes": [[["conv2d_36", 0, 0, {}]]], "config": {"momentum": 0.9, "gamma_initializer": {"config": {}, "class_name": "Ones"}, "center": true, "epsilon": 2e-05, "beta_regularizer": null, "axis": -1, "moving_mean_initializer": {"config": {}, "class_name": "Zeros"}, "name": "batch_normalization_35", "beta_initializer": {"config": {}, "class_name": "Zeros"}, "moving_variance_initializer": {"config": {}, "class_name": "Ones"}, "beta_constraint": null, "trainable": true, "gamma_constraint": null, "scale": true, "gamma_regularizer": null}, "class_name": "BatchNormalization"}, {"name": "activation_34", "inbound_nodes": [[["batch_normalization_35", 0, 0, {}]]], "config": {"name": "activation_34", "trainable": true, "activation": "relu"}, "class_name": "Activation"}, {"name": "conv2d_37", "inbound_nodes": [[["activation_34", 0, 0, {}]]], "config": {"name": "conv2d_37", "kernel_constraint": null, "activation": "linear", "bias_initializer": {"config": {}, "class_name": "Zeros"}, "bias_constraint": null, "data_format": "channels_last", "use_bias": false, "strides": [1, 1], "kernel_initializer": {"config": {"mode": "fan_avg", "seed": null, "scale": 1.0, "distribution": "uniform"}, "class_name": "VarianceScaling"}, "activity_regularizer": null, "bias_regularizer": null, "dilation_rate": [1, 1], "kernel_regularizer": {"config": {"l1": 0.0, "l2": 9.999999747378752e-05}, "class_name": "L1L2"}, "trainable": true, "padding": "valid", "kernel_size": [1, 1], "filters": 512}, "class_name": "Conv2D"}, {"name": "add_11", "inbound_nodes": [[["conv2d_37", 0, 0, {}], ["add_10", 0, 0, {}]]], "config": {"name": "add_11", "trainable": true}, "class_name": "Add"}, {"name": "batch_normalization_36", "inbound_nodes": [[["add_11", 0, 0, {}]]], "config": {"momentum": 0.9, "gamma_initializer": {"config": {}, "class_name": "Ones"}, "center": true, "epsilon": 2e-05, "beta_regularizer": null, "axis": -1, "moving_mean_initializer": {"config": {}, "class_name": "Zeros"}, "name": "batch_normalization_36", "beta_initializer": {"config": {}, "class_name": "Zeros"}, "moving_variance_initializer": {"config": {}, "class_name": "Ones"}, "beta_constraint": null, "trainable": true, "gamma_constraint": null, "scale": true, "gamma_regularizer": null}, "class_name": "BatchNormalization"}, {"name": "activation_35", "inbound_nodes": [[["batch_normalization_36", 0, 0, {}]]], "config": {"name": "activation_35", "trainable": true, "activation": "relu"}, "class_name": "Activation"}, {"name": "conv2d_38", "inbound_nodes": [[["activation_35", 0, 0, {}]]], "config": {"name": "conv2d_38", "kernel_constraint": null, "activation": "linear", "bias_initializer": {"config": {}, "class_name": "Zeros"}, "bias_constraint": null, "data_format": "channels_last", "use_bias": false, "strides": [1, 1], "kernel_initializer": {"config": {"mode": "fan_avg", "seed": null, "scale": 1.0, "distribution": "uniform"}, "class_name": "VarianceScaling"}, "activity_regularizer": null, "bias_regularizer": null, "dilation_rate": [1, 1], "kernel_regularizer": {"config": {"l1": 0.0, "l2": 9.999999747378752e-05}, "class_name": "L1L2"}, "trainable": true, "padding": "valid", "kernel_size": [1, 1], "filters": 128}, "class_name": "Conv2D"}, {"name": "batch_normalization_37", "inbound_nodes": [[["conv2d_38", 0, 0, {}]]], "config": {"momentum": 0.9, "gamma_initializer": {"config": {}, "class_name": "Ones"}, "center": true, "epsilon": 2e-05, "beta_regularizer": null, "axis": -1, "moving_mean_initializer": {"config": {}, "class_name": "Zeros"}, "name": "batch_normalization_37", "beta_initializer": {"config": {}, "class_name": "Zeros"}, "moving_variance_initializer": {"config": {}, "class_name": "Ones"}, "beta_constraint": null, "trainable": true, "gamma_constraint": null, "scale": true, "gamma_regularizer": null}, "class_name": "BatchNormalization"}, {"name": "activation_36", "inbound_nodes": [[["batch_normalization_37", 0, 0, {}]]], "config": {"name": "activation_36", "trainable": true, "activation": "relu"}, "class_name": "Activation"}, {"name": "conv2d_39", "inbound_nodes": [[["activation_36", 0, 0, {}]]], "config": {"name": "conv2d_39", "kernel_constraint": null, "activation": "linear", "bias_initializer": {"config": {}, "class_name": "Zeros"}, "bias_constraint": null, "data_format": "channels_last", "use_bias": false, "strides": [1, 1], "kernel_initializer": {"config": {"mode": "fan_avg", "seed": null, "scale": 1.0, "distribution": "uniform"}, "class_name": "VarianceScaling"}, "activity_regularizer": null, "bias_regularizer": null, "dilation_rate": [1, 1], "kernel_regularizer": {"config": {"l1": 0.0, "l2": 9.999999747378752e-05}, "class_name": "L1L2"}, "trainable": true, "padding": "same", "kernel_size": [3, 3], "filters": 128}, "class_name": "Conv2D"}, {"name": "batch_normalization_38", "inbound_nodes": [[["conv2d_39", 0, 0, {}]]], "config": {"momentum": 0.9, "gamma_initializer": {"config": {}, "class_name": "Ones"}, "center": true, "epsilon": 2e-05, "beta_regularizer": null, "axis": -1, "moving_mean_initializer": {"config": {}, "class_name": "Zeros"}, "name": "batch_normalization_38", "beta_initializer": {"config": {}, "class_name": "Zeros"}, "moving_variance_initializer": {"config": {}, "class_name": "Ones"}, "beta_constraint": null, "trainable": true, "gamma_constraint": null, "scale": true, "gamma_regularizer": null}, "class_name": "BatchNormalization"}, {"name": "activation_37", "inbound_nodes": [[["batch_normalization_38", 0, 0, {}]]], "config": {"name": "activation_37", "trainable": true, "activation": "relu"}, "class_name": "Activation"}, {"name": "conv2d_40", "inbound_nodes": [[["activation_37", 0, 0, {}]]], "config": {"name": "conv2d_40", "kernel_constraint": null, "activation": "linear", "bias_initializer": {"config": {}, "class_name": "Zeros"}, "bias_constraint": null, "data_format": "channels_last", "use_bias": false, "strides": [1, 1], "kernel_initializer": {"config": {"mode": "fan_avg", "seed": null, "scale": 1.0, "distribution": "uniform"}, "class_name": "VarianceScaling"}, "activity_regularizer": null, "bias_regularizer": null, "dilation_rate": [1, 1], "kernel_regularizer": {"config": {"l1": 0.0, "l2": 9.999999747378752e-05}, "class_name": "L1L2"}, "trainable": true, "padding": "valid", "kernel_size": [1, 1], "filters": 512}, "class_name": "Conv2D"}, {"name": "add_12", "inbound_nodes": [[["conv2d_40", 0, 0, {}], ["add_11", 0, 0, {}]]], "config": {"name": "add_12", "trainable": true}, "class_name": "Add"}, {"name": "batch_normalization_39", "inbound_nodes": [[["add_12", 0, 0, {}]]], "config": {"momentum": 0.9, "gamma_initializer": {"config": {}, "class_name": "Ones"}, "center": true, "epsilon": 2e-05, "beta_regularizer": null, "axis": -1, "moving_mean_initializer": {"config": {}, "class_name": "Zeros"}, "name": "batch_normalization_39", "beta_initializer": {"config": {}, "class_name": "Zeros"}, "moving_variance_initializer": {"config": {}, "class_name": "Ones"}, "beta_constraint": null, "trainable": true, "gamma_constraint": null, "scale": true, "gamma_regularizer": null}, "class_name": "BatchNormalization"}, {"name": "activation_38", "inbound_nodes": [[["batch_normalization_39", 0, 0, {}]]], "config": {"name": "activation_38", "trainable": true, "activation": "relu"}, "class_name": "Activation"}, {"name": "conv2d_41", "inbound_nodes": [[["activation_38", 0, 0, {}]]], "config": {"name": "conv2d_41", "kernel_constraint": null, "activation": "linear", "bias_initializer": {"config": {}, "class_name": "Zeros"}, "bias_constraint": null, "data_format": "channels_last", "use_bias": false, "strides": [1, 1], "kernel_initializer": {"config": {"mode": "fan_avg", "seed": null, "scale": 1.0, "distribution": "uniform"}, "class_name": "VarianceScaling"}, "activity_regularizer": null, "bias_regularizer": null, "dilation_rate": [1, 1], "kernel_regularizer": {"config": {"l1": 0.0, "l2": 9.999999747378752e-05}, "class_name": "L1L2"}, "trainable": true, "padding": "valid", "kernel_size": [1, 1], "filters": 128}, "class_name": "Conv2D"}, {"name": "batch_normalization_40", "inbound_nodes": [[["conv2d_41", 0, 0, {}]]], "config": {"momentum": 0.9, "gamma_initializer": {"config": {}, "class_name": "Ones"}, "center": true, "epsilon": 2e-05, "beta_regularizer": null, "axis": -1, "moving_mean_initializer": {"config": {}, "class_name": "Zeros"}, "name": "batch_normalization_40", "beta_initializer": {"config": {}, "class_name": "Zeros"}, "moving_variance_initializer": {"config": {}, "class_name": "Ones"}, "beta_constraint": null, "trainable": true, "gamma_constraint": null, "scale": true, "gamma_regularizer": null}, "class_name": "BatchNormalization"}, {"name": "activation_39", "inbound_nodes": [[["batch_normalization_40", 0, 0, {}]]], "config": {"name": "activation_39", "trainable": true, "activation": "relu"}, "class_name": "Activation"}, {"name": "conv2d_42", "inbound_nodes": [[["activation_39", 0, 0, {}]]], "config": {"name": "conv2d_42", "kernel_constraint": null, "activation": "linear", "bias_initializer": {"config": {}, "class_name": "Zeros"}, "bias_constraint": null, "data_format": "channels_last", "use_bias": false, "strides": [1, 1], "kernel_initializer": {"config": {"mode": "fan_avg", "seed": null, "scale": 1.0, "distribution": "uniform"}, "class_name": "VarianceScaling"}, "activity_regularizer": null, "bias_regularizer": null, "dilation_rate": [1, 1], "kernel_regularizer": {"config": {"l1": 0.0, "l2": 9.999999747378752e-05}, "class_name": "L1L2"}, "trainable": true, "padding": "same", "kernel_size": [3, 3], "filters": 128}, "class_name": "Conv2D"}, {"name": "batch_normalization_41", "inbound_nodes": [[["conv2d_42", 0, 0, {}]]], "config": {"momentum": 0.9, "gamma_initializer": {"config": {}, "class_name": "Ones"}, "center": true, "epsilon": 2e-05, "beta_regularizer": null, "axis": -1, "moving_mean_initializer": {"config": {}, "class_name": "Zeros"}, "name": "batch_normalization_41", "beta_initializer": {"config": {}, "class_name": "Zeros"}, "moving_variance_initializer": {"config": {}, "class_name": "Ones"}, "beta_constraint": null, "trainable": true, "gamma_constraint": null, "scale": true, "gamma_regularizer": null}, "class_name": "BatchNormalization"}, {"name": "activation_40", "inbound_nodes": [[["batch_normalization_41", 0, 0, {}]]], "config": {"name": "activation_40", "trainable": true, "activation": "relu"}, "class_name": "Activation"}, {"name": "conv2d_43", "inbound_nodes": [[["activation_40", 0, 0, {}]]], "config": {"name": "conv2d_43", "kernel_constraint": null, "activation": "linear", "bias_initializer": {"config": {}, "class_name": "Zeros"}, "bias_constraint": null, "data_format": "channels_last", "use_bias": false, "strides": [1, 1], "kernel_initializer": {"config": {"mode": "fan_avg", "seed": null, "scale": 1.0, "distribution": "uniform"}, "class_name": "VarianceScaling"}, "activity_regularizer": null, "bias_regularizer": null, "dilation_rate": [1, 1], "kernel_regularizer": {"config": {"l1": 0.0, "l2": 9.999999747378752e-05}, "class_name": "L1L2"}, "trainable": true, "padding": "valid", "kernel_size": [1, 1], "filters": 512}, "class_name": "Conv2D"}, {"name": "add_13", "inbound_nodes": [[["conv2d_43", 0, 0, {}], ["add_12", 0, 0, {}]]], "config": {"name": "add_13", "trainable": true}, "class_name": "Add"}, {"name": "batch_normalization_42", "inbound_nodes": [[["add_13", 0, 0, {}]]], "config": {"momentum": 0.9, "gamma_initializer": {"config": {}, "class_name": "Ones"}, "center": true, "epsilon": 2e-05, "beta_regularizer": null, "axis": -1, "moving_mean_initializer": {"config": {}, "class_name": "Zeros"}, "name": "batch_normalization_42", "beta_initializer": {"config": {}, "class_name": "Zeros"}, "moving_variance_initializer": {"config": {}, "class_name": "Ones"}, "beta_constraint": null, "trainable": true, "gamma_constraint": null, "scale": true, "gamma_regularizer": null}, "class_name": "BatchNormalization"}, {"name": "activation_41", "inbound_nodes": [[["batch_normalization_42", 0, 0, {}]]], "config": {"name": "activation_41", "trainable": true, "activation": "relu"}, "class_name": "Activation"}, {"name": "average_pooling2d_1", "inbound_nodes": [[["activation_41", 0, 0, {}]]], "config": {"name": "average_pooling2d_1", "trainable": true, "data_format": "channels_last", "pool_size": [8, 8], "strides": [8, 8], "padding": "valid"}, "class_name": "AveragePooling2D"}, {"name": "flatten_1", "inbound_nodes": [[["average_pooling2d_1", 0, 0, {}]]], "config": {"name": "flatten_1", "trainable": true}, "class_name": "Flatten"}, {"name": "dense_1", "inbound_nodes": [[["flatten_1", 0, 0, {}]]], "config": {"name": "dense_1", "kernel_constraint": null, "activation": "linear", "bias_initializer": {"config": {}, "class_name": "Zeros"}, "bias_constraint": null, "use_bias": true, "kernel_initializer": {"config": {"mode": "fan_avg", "seed": null, "scale": 1.0, "distribution": "uniform"}, "class_name": "VarianceScaling"}, "activity_regularizer": null, "bias_regularizer": null, "units": 2, "kernel_regularizer": {"config": {"l1": 0.0, "l2": 0.0005000000237487257}, "class_name": "L1L2"}, "trainable": true}, "class_name": "Dense"}, {"name": "activation_42", "inbound_nodes": [[["dense_1", 0, 0, {}]]], "config": {"name": "activation_42", "trainable": true, "activation": "softmax"}, "class_name": "Activation"}], "output_layers": [["activation_42", 0, 0]], "input_layers": [["input_1", 0, 0]]}, "keras_version": "2.0.6", "class_name": "Model"}