{"config": {"layers": [{"config": {"batch_input_shape": [null, 64, 64, 3], "dtype": "float32", "name": "input_1", "sparse": false}, "name": "input_1", "class_name": "InputLayer", "inbound_nodes": []}, {"config": {"beta_regularizer": null, "name": "batch_normalization_1", "moving_variance_initializer": {"config": {}, "class_name": "Ones"}, "epsilon": 2e-05, "gamma_constraint": null, "trainable": true, "scale": true, "center": true, "moving_mean_initializer": {"config": {}, "class_name": "Zeros"}, "beta_constraint": null, "axis": -1, "beta_initializer": {"config": {}, "class_name": "Zeros"}, "gamma_initializer": {"config": {}, "class_name": "Ones"}, "gamma_regularizer": null, "momentum": 0.9}, "name": "batch_normalization_1", "class_name": "BatchNormalization", "inbound_nodes": [[["input_1", 0, 0, {}]]]}, {"config": {"padding": "same", "name": "conv2d_1", "filters": 64, "kernel_size": [5, 5], "kernel_constraint": null, "bias_constraint": null, "trainable": true, "bias_initializer": {"config": {}, "class_name": "Zeros"}, "strides": [1, 1], "data_format": "channels_last", "kernel_regularizer": {"config": {"l1": 0.0, "l2": 0.0005000000237487257}, "class_name": "L1L2"}, "activation": "linear", "bias_regularizer": null, "use_bias": false, "kernel_initializer": {"config": {"mode": "fan_avg", "scale": 1.0, "seed": null, "distribution": "uniform"}, "class_name": "VarianceScaling"}, "activity_regularizer": null, "dilation_rate": [1, 1]}, "name": "conv2d_1", "class_name": "Conv2D", "inbound_nodes": [[["batch_normalization_1", 0, 0, {}]]]}, {"config": {"beta_regularizer": null, "name": "batch_normalization_2", "moving_variance_initializer": {"config": {}, "class_name": "Ones"}, "epsilon": 2e-05, "gamma_constraint": null, "trainable": true, "scale": true, "center": true, "moving_mean_initializer": {"config": {}, "class_name": "Zeros"}, "beta_constraint": null, "axis": -1, "beta_initializer": {"config": {}, "class_name": "Zeros"}, "gamma_initializer": {"config": {}, "class_name": "Ones"}, "gamma_regularizer": null, "momentum": 0.9}, "name": "batch_normalization_2", "class_name": "BatchNormalization", "inbound_nodes": [[["conv2d_1", 0, 0, {}]]]}, {"config": {"activation": "relu", "name": "activation_1", "trainable": true}, "name": "activation_1", "class_name": "Activation", "inbound_nodes": [[["batch_normalization_2", 0, 0, {}]]]}, {"config": {"padding": [[1, 1], [1, 1]], "name": "zero_padding2d_1", "data_format": "channels_last", "trainable": true}, "name": "zero_padding2d_1", "class_name": "ZeroPadding2D", "inbound_nodes": [[["activation_1", 0, 0, {}]]]}, {"config": {"padding": "valid", "name": "max_pooling2d_1", "data_format": "channels_last", "pool_size": [3, 3], "strides": [2, 2], "trainable": true}, "name": "max_pooling2d_1", "class_name": "MaxPooling2D", "inbound_nodes": [[["zero_padding2d_1", 0, 0, {}]]]}, {"config": {"beta_regularizer": null, "name": "batch_normalization_3", "moving_variance_initializer": {"config": {}, "class_name": "Ones"}, "epsilon": 2e-05, "gamma_constraint": null, "trainable": true, "scale": true, "center": true, "moving_mean_initializer": {"config": {}, "class_name": "Zeros"}, "beta_constraint": null, "axis": -1, "beta_initializer": {"config": {}, "class_name": "Zeros"}, "gamma_initializer": {"config": {}, "class_name": "Ones"}, "gamma_regularizer": null, "momentum": 0.9}, "name": "batch_normalization_3", "class_name": "BatchNormalization", "inbound_nodes": [[["max_pooling2d_1", 0, 0, {}]]]}, {"config": {"activation": "relu", "name": "activation_2", "trainable": true}, "name": "activation_2", "class_name": "Activation", "inbound_nodes": [[["batch_normalization_3", 0, 0, {}]]]}, {"config": {"padding": "valid", "name": "conv2d_2", "filters": 32, "kernel_size": [1, 1], "kernel_constraint": null, "bias_constraint": null, "trainable": true, "bias_initializer": {"config": {}, "class_name": "Zeros"}, "strides": [1, 1], "data_format": "channels_last", "kernel_regularizer": {"config": {"l1": 0.0, "l2": 9.999999747378752e-05}, "class_name": "L1L2"}, "activation": "linear", "bias_regularizer": null, "use_bias": false, "kernel_initializer": {"config": {"mode": "fan_avg", "scale": 1.0, "seed": null, "distribution": "uniform"}, "class_name": "VarianceScaling"}, "activity_regularizer": null, "dilation_rate": [1, 1]}, "name": "conv2d_2", "class_name": "Conv2D", "inbound_nodes": [[["activation_2", 0, 0, {}]]]}, {"config": {"beta_regularizer": null, "name": "batch_normalization_4", "moving_variance_initializer": {"config": {}, "class_name": "Ones"}, "epsilon": 2e-05, "gamma_constraint": null, "trainable": true, "scale": true, "center": true, "moving_mean_initializer": {"config": {}, "class_name": "Zeros"}, "beta_constraint": null, "axis": -1, "beta_initializer": {"config": {}, "class_name": "Zeros"}, "gamma_initializer": {"config": {}, "class_name": "Ones"}, "gamma_regularizer": null, "momentum": 0.9}, "name": "batch_normalization_4", "class_name": "BatchNormalization", "inbound_nodes": [[["conv2d_2", 0, 0, {}]]]}, {"config": {"activation": "relu", "name": "activation_3", "trainable": true}, "name": "activation_3", "class_name": "Activation", "inbound_nodes": [[["batch_normalization_4", 0, 0, {}]]]}, {"config": {"padding": "same", "name": "conv2d_3", "filters": 32, "kernel_size": [3, 3], "kernel_constraint": null, "bias_constraint": null, "trainable": true, "bias_initializer": {"config": {}, "class_name": "Zeros"}, "strides": [1, 1], "data_format": "channels_last", "kernel_regularizer": {"config": {"l1": 0.0, "l2": 9.999999747378752e-05}, "class_name": "L1L2"}, "activation": "linear", "bias_regularizer": null, "use_bias": false, "kernel_initializer": {"config": {"mode": "fan_avg", "scale": 1.0, "seed": null, "distribution": "uniform"}, "class_name": "VarianceScaling"}, "activity_regularizer": null, "dilation_rate": [1, 1]}, "name": "conv2d_3", "class_name": "Conv2D", "inbound_nodes": [[["activation_3", 0, 0, {}]]]}, {"config": {"beta_regularizer": null, "name": "batch_normalization_5", "moving_variance_initializer": {"config": {}, "class_name": "Ones"}, "epsilon": 2e-05, "gamma_constraint": null, "trainable": true, "scale": true, "center": true, "moving_mean_initializer": {"config": {}, "class_name": "Zeros"}, "beta_constraint": null, "axis": -1, "beta_initializer": {"config": {}, "class_name": "Zeros"}, "gamma_initializer": {"config": {}, "class_name": "Ones"}, "gamma_regularizer": null, "momentum": 0.9}, "name": "batch_normalization_5", "class_name": "BatchNormalization", "inbound_nodes": [[["conv2d_3", 0, 0, {}]]]}, {"config": {"activation": "relu", "name": "activation_4", "trainable": true}, "name": "activation_4", "class_name": "Activation", "inbound_nodes": [[["batch_normalization_5", 0, 0, {}]]]}, {"config": {"padding": "valid", "name": "conv2d_4", "filters": 128, "kernel_size": [1, 1], "kernel_constraint": null, "bias_constraint": null, "trainable": true, "bias_initializer": {"config": {}, "class_name": "Zeros"}, "strides": [1, 1], "data_format": "channels_last", "kernel_regularizer": {"config": {"l1": 0.0, "l2": 9.999999747378752e-05}, "class_name": "L1L2"}, "activation": "linear", "bias_regularizer": null, "use_bias": false, "kernel_initializer": {"config": {"mode": "fan_avg", "scale": 1.0, "seed": null, "distribution": "uniform"}, "class_name": "VarianceScaling"}, "activity_regularizer": null, "dilation_rate": [1, 1]}, "name": "conv2d_4", "class_name": "Conv2D", "inbound_nodes": [[["activation_4", 0, 0, {}]]]}, {"config": {"padding": "valid", "name": "conv2d_5", "filters": 128, "kernel_size": [1, 1], "kernel_constraint": null, "bias_constraint": null, "trainable": true, "bias_initializer": {"config": {}, "class_name": "Zeros"}, "strides": [1, 1], "data_format": "channels_last", "kernel_regularizer": {"config": {"l1": 0.0, "l2": 9.999999747378752e-05}, "class_name": "L1L2"}, "activation": "linear", "bias_regularizer": null, "use_bias": false, "kernel_initializer": {"config": {"mode": "fan_avg", "scale": 1.0, "seed": null, "distribution": "uniform"}, "class_name": "VarianceScaling"}, "activity_regularizer": null, "dilation_rate": [1, 1]}, "name": "conv2d_5", "class_name": "Conv2D", "inbound_nodes": [[["activation_2", 0, 0, {}]]]}, {"config": {"name": "add_1", "trainable": true}, "name": "add_1", "class_name": "Add", "inbound_nodes": [[["conv2d_4", 0, 0, {}], ["conv2d_5", 0, 0, {}]]]}, {"config": {"beta_regularizer": null, "name": "batch_normalization_6", "moving_variance_initializer": {"config": {}, "class_name": "Ones"}, "epsilon": 2e-05, "gamma_constraint": null, "trainable": true, "scale": true, "center": true, "moving_mean_initializer": {"config": {}, "class_name": "Zeros"}, "beta_constraint": null, "axis": -1, "beta_initializer": {"config": {}, "class_name": "Zeros"}, "gamma_initializer": {"config": {}, "class_name": "Ones"}, "gamma_regularizer": null, "momentum": 0.9}, "name": "batch_normalization_6", "class_name": "BatchNormalization", "inbound_nodes": [[["add_1", 0, 0, {}]]]}, {"config": {"activation": "relu", "name": "activation_5", "trainable": true}, "name": "activation_5", "class_name": "Activation", "inbound_nodes": [[["batch_normalization_6", 0, 0, {}]]]}, {"config": {"padding": "valid", "name": "conv2d_6", "filters": 32, "kernel_size": [1, 1], "kernel_constraint": null, "bias_constraint": null, "trainable": true, "bias_initializer": {"config": {}, "class_name": "Zeros"}, "strides": [1, 1], "data_format": "channels_last", "kernel_regularizer": {"config": {"l1": 0.0, "l2": 9.999999747378752e-05}, "class_name": "L1L2"}, "activation": "linear", "bias_regularizer": null, "use_bias": false, "kernel_initializer": {"config": {"mode": "fan_avg", "scale": 1.0, "seed": null, "distribution": "uniform"}, "class_name": "VarianceScaling"}, "activity_regularizer": null, "dilation_rate": [1, 1]}, "name": "conv2d_6", "class_name": "Conv2D", "inbound_nodes": [[["activation_5", 0, 0, {}]]]}, {"config": {"beta_regularizer": null, "name": "batch_normalization_7", "moving_variance_initializer": {"config": {}, "class_name": "Ones"}, "epsilon": 2e-05, "gamma_constraint": null, "trainable": true, "scale": true, "center": true, "moving_mean_initializer": {"config": {}, "class_name": "Zeros"}, "beta_constraint": null, "axis": -1, "beta_initializer": {"config": {}, "class_name": "Zeros"}, "gamma_initializer": {"config": {}, "class_name": "Ones"}, "gamma_regularizer": null, "momentum": 0.9}, "name": "batch_normalization_7", "class_name": "BatchNormalization", "inbound_nodes": [[["conv2d_6", 0, 0, {}]]]}, {"config": {"activation": "relu", "name": "activation_6", "trainable": true}, "name": "activation_6", "class_name": "Activation", "inbound_nodes": [[["batch_normalization_7", 0, 0, {}]]]}, {"config": {"padding": "same", "name": "conv2d_7", "filters": 32, "kernel_size": [3, 3], "kernel_constraint": null, "bias_constraint": null, "trainable": true, "bias_initializer": {"config": {}, "class_name": "Zeros"}, "strides": [1, 1], "data_format": "channels_last", "kernel_regularizer": {"config": {"l1": 0.0, "l2": 9.999999747378752e-05}, "class_name": "L1L2"}, "activation": "linear", "bias_regularizer": null, "use_bias": false, "kernel_initializer": {"config": {"mode": "fan_avg", "scale": 1.0, "seed": null, "distribution": "uniform"}, "class_name": "VarianceScaling"}, "activity_regularizer": null, "dilation_rate": [1, 1]}, "name": "conv2d_7", "class_name": "Conv2D", "inbound_nodes": [[["activation_6", 0, 0, {}]]]}, {"config": {"beta_regularizer": null, "name": "batch_normalization_8", "moving_variance_initializer": {"config": {}, "class_name": "Ones"}, "epsilon": 2e-05, "gamma_constraint": null, "trainable": true, "scale": true, "center": true, "moving_mean_initializer": {"config": {}, "class_name": "Zeros"}, "beta_constraint": null, "axis": -1, "beta_initializer": {"config": {}, "class_name": "Zeros"}, "gamma_initializer": {"config": {}, "class_name": "Ones"}, "gamma_regularizer": null, "momentum": 0.9}, "name": "batch_normalization_8", "class_name": "BatchNormalization", "inbound_nodes": [[["conv2d_7", 0, 0, {}]]]}, {"config": {"activation": "relu", "name": "activation_7", "trainable": true}, "name": "activation_7", "class_name": "Activation", "inbound_nodes": [[["batch_normalization_8", 0, 0, {}]]]}, {"config": {"padding": "valid", "name": "conv2d_8", "filters": 128, "kernel_size": [1, 1], "kernel_constraint": null, "bias_constraint": null, "trainable": true, "bias_initializer": {"config": {}, "class_name": "Zeros"}, "strides": [1, 1], "data_format": "channels_last", "kernel_regularizer": {"config": {"l1": 0.0, "l2": 9.999999747378752e-05}, "class_name": "L1L2"}, "activation": "linear", "bias_regularizer": null, "use_bias": false, "kernel_initializer": {"config": {"mode": "fan_avg", "scale": 1.0, "seed": null, "distribution": "uniform"}, "class_name": "VarianceScaling"}, "activity_regularizer": null, "dilation_rate": [1, 1]}, "name": "conv2d_8", "class_name": "Conv2D", "inbound_nodes": [[["activation_7", 0, 0, {}]]]}, {"config": {"name": "add_2", "trainable": true}, "name": "add_2", "class_name": "Add", "inbound_nodes": [[["conv2d_8", 0, 0, {}], ["add_1", 0, 0, {}]]]}, {"config": {"beta_regularizer": null, "name": "batch_normalization_9", "moving_variance_initializer": {"config": {}, "class_name": "Ones"}, "epsilon": 2e-05, "gamma_constraint": null, "trainable": true, "scale": true, "center": true, "moving_mean_initializer": {"config": {}, "class_name": "Zeros"}, "beta_constraint": null, "axis": -1, "beta_initializer": {"config": {}, "class_name": "Zeros"}, "gamma_initializer": {"config": {}, "class_name": "Ones"}, "gamma_regularizer": null, "momentum": 0.9}, "name": "batch_normalization_9", "class_name": "BatchNormalization", "inbound_nodes": [[["add_2", 0, 0, {}]]]}, {"config": {"activation": "relu", "name": "activation_8", "trainable": true}, "name": "activation_8", "class_name": "Activation", "inbound_nodes": [[["batch_normalization_9", 0, 0, {}]]]}, {"config": {"padding": "valid", "name": "conv2d_9", "filters": 32, "kernel_size": [1, 1], "kernel_constraint": null, "bias_constraint": null, "trainable": true, "bias_initializer": {"config": {}, "class_name": "Zeros"}, "strides": [1, 1], "data_format": "channels_last", "kernel_regularizer": {"config": {"l1": 0.0, "l2": 9.999999747378752e-05}, "class_name": "L1L2"}, "activation": "linear", "bias_regularizer": null, "use_bias": false, "kernel_initializer": {"config": {"mode": "fan_avg", "scale": 1.0, "seed": null, "distribution": "uniform"}, "class_name": "VarianceScaling"}, "activity_regularizer": null, "dilation_rate": [1, 1]}, "name": "conv2d_9", "class_name": "Conv2D", "inbound_nodes": [[["activation_8", 0, 0, {}]]]}, {"config": {"beta_regularizer": null, "name": "batch_normalization_10", "moving_variance_initializer": {"config": {}, "class_name": "Ones"}, "epsilon": 2e-05, "gamma_constraint": null, "trainable": true, "scale": true, "center": true, "moving_mean_initializer": {"config": {}, "class_name": "Zeros"}, "beta_constraint": null, "axis": -1, "beta_initializer": {"config": {}, "class_name": "Zeros"}, "gamma_initializer": {"config": {}, "class_name": "Ones"}, "gamma_regularizer": null, "momentum": 0.9}, "name": "batch_normalization_10", "class_name": "BatchNormalization", "inbound_nodes": [[["conv2d_9", 0, 0, {}]]]}, {"config": {"activation": "relu", "name": "activation_9", "trainable": true}, "name": "activation_9", "class_name": "Activation", "inbound_nodes": [[["batch_normalization_10", 0, 0, {}]]]}, {"config": {"padding": "same", "name": "conv2d_10", "filters": 32, "kernel_size": [3, 3], "kernel_constraint": null, "bias_constraint": null, "trainable": true, "bias_initializer": {"config": {}, "class_name": "Zeros"}, "strides": [1, 1], "data_format": "channels_last", "kernel_regularizer": {"config": {"l1": 0.0, "l2": 9.999999747378752e-05}, "class_name": "L1L2"}, "activation": "linear", "bias_regularizer": null, "use_bias": false, "kernel_initializer": {"config": {"mode": "fan_avg", "scale": 1.0, "seed": null, "distribution": "uniform"}, "class_name": "VarianceScaling"}, "activity_regularizer": null, "dilation_rate": [1, 1]}, "name": "conv2d_10", "class_name": "Conv2D", "inbound_nodes": [[["activation_9", 0, 0, {}]]]}, {"config": {"beta_regularizer": null, "name": "batch_normalization_11", "moving_variance_initializer": {"config": {}, "class_name": "Ones"}, "epsilon": 2e-05, "gamma_constraint": null, "trainable": true, "scale": true, "center": true, "moving_mean_initializer": {"config": {}, "class_name": "Zeros"}, "beta_constraint": null, "axis": -1, "beta_initializer": {"config": {}, "class_name": "Zeros"}, "gamma_initializer": {"config": {}, "class_name": "Ones"}, "gamma_regularizer": null, "momentum": 0.9}, "name": "batch_normalization_11", "class_name": "BatchNormalization", "inbound_nodes": [[["conv2d_10", 0, 0, {}]]]}, {"config": {"activation": "relu", "name": "activation_10", "trainable": true}, "name": "activation_10", "class_name": "Activation", "inbound_nodes": [[["batch_normalization_11", 0, 0, {}]]]}, {"config": {"padding": "valid", "name": "conv2d_11", "filters": 128, "kernel_size": [1, 1], "kernel_constraint": null, "bias_constraint": null, "trainable": true, "bias_initializer": {"config": {}, "class_name": "Zeros"}, "strides": [1, 1], "data_format": "channels_last", "kernel_regularizer": {"config": {"l1": 0.0, "l2": 9.999999747378752e-05}, "class_name": "L1L2"}, "activation": "linear", "bias_regularizer": null, "use_bias": false, "kernel_initializer": {"config": {"mode": "fan_avg", "scale": 1.0, "seed": null, "distribution": "uniform"}, "class_name": "VarianceScaling"}, "activity_regularizer": null, "dilation_rate": [1, 1]}, "name": "conv2d_11", "class_name": "Conv2D", "inbound_nodes": [[["activation_10", 0, 0, {}]]]}, {"config": {"name": "add_3", "trainable": true}, "name": "add_3", "class_name": "Add", "inbound_nodes": [[["conv2d_11", 0, 0, {}], ["add_2", 0, 0, {}]]]}, {"config": {"beta_regularizer": null, "name": "batch_normalization_12", "moving_variance_initializer": {"config": {}, "class_name": "Ones"}, "epsilon": 2e-05, "gamma_constraint": null, "trainable": true, "scale": true, "center": true, "moving_mean_initializer": {"config": {}, "class_name": "Zeros"}, "beta_constraint": null, "axis": -1, "beta_initializer": {"config": {}, "class_name": "Zeros"}, "gamma_initializer": {"config": {}, "class_name": "Ones"}, "gamma_regularizer": null, "momentum": 0.9}, "name": "batch_normalization_12", "class_name": "BatchNormalization", "inbound_nodes": [[["add_3", 0, 0, {}]]]}, {"config": {"activation": "relu", "name": "activation_11", "trainable": true}, "name": "activation_11", "class_name": "Activation", "inbound_nodes": [[["batch_normalization_12", 0, 0, {}]]]}, {"config": {"padding": "valid", "name": "conv2d_12", "filters": 64, "kernel_size": [1, 1], "kernel_constraint": null, "bias_constraint": null, "trainable": true, "bias_initializer": {"config": {}, "class_name": "Zeros"}, "strides": [1, 1], "data_format": "channels_last", "kernel_regularizer": {"config": {"l1": 0.0, "l2": 9.999999747378752e-05}, "class_name": "L1L2"}, "activation": "linear", "bias_regularizer": null, "use_bias": false, "kernel_initializer": {"config": {"mode": "fan_avg", "scale": 1.0, "seed": null, "distribution": "uniform"}, "class_name": "VarianceScaling"}, "activity_regularizer": null, "dilation_rate": [1, 1]}, "name": "conv2d_12", "class_name": "Conv2D", "inbound_nodes": [[["activation_11", 0, 0, {}]]]}, {"config": {"beta_regularizer": null, "name": "batch_normalization_13", "moving_variance_initializer": {"config": {}, "class_name": "Ones"}, "epsilon": 2e-05, "gamma_constraint": null, "trainable": true, "scale": true, "center": true, "moving_mean_initializer": {"config": {}, "class_name": "Zeros"}, "beta_constraint": null, "axis": -1, "beta_initializer": {"config": {}, "class_name": "Zeros"}, "gamma_initializer": {"config": {}, "class_name": "Ones"}, "gamma_regularizer": null, "momentum": 0.9}, "name": "batch_normalization_13", "class_name": "BatchNormalization", "inbound_nodes": [[["conv2d_12", 0, 0, {}]]]}, {"config": {"activation": "relu", "name": "activation_12", "trainable": true}, "name": "activation_12", "class_name": "Activation", "inbound_nodes": [[["batch_normalization_13", 0, 0, {}]]]}, {"config": {"padding": "same", "name": "conv2d_13", "filters": 64, "kernel_size": [3, 3], "kernel_constraint": null, "bias_constraint": null, "trainable": true, "bias_initializer": {"config": {}, "class_name": "Zeros"}, "strides": [2, 2], "data_format": "channels_last", "kernel_regularizer": {"config": {"l1": 0.0, "l2": 9.999999747378752e-05}, "class_name": "L1L2"}, "activation": "linear", "bias_regularizer": null, "use_bias": false, "kernel_initializer": {"config": {"mode": "fan_avg", "scale": 1.0, "seed": null, "distribution": "uniform"}, "class_name": "VarianceScaling"}, "activity_regularizer": null, "dilation_rate": [1, 1]}, "name": "conv2d_13", "class_name": "Conv2D", "inbound_nodes": [[["activation_12", 0, 0, {}]]]}, {"config": {"beta_regularizer": null, "name": "batch_normalization_14", "moving_variance_initializer": {"config": {}, "class_name": "Ones"}, "epsilon": 2e-05, "gamma_constraint": null, "trainable": true, "scale": true, "center": true, "moving_mean_initializer": {"config": {}, "class_name": "Zeros"}, "beta_constraint": null, "axis": -1, "beta_initializer": {"config": {}, "class_name": "Zeros"}, "gamma_initializer": {"config": {}, "class_name": "Ones"}, "gamma_regularizer": null, "momentum": 0.9}, "name": "batch_normalization_14", "class_name": "BatchNormalization", "inbound_nodes": [[["conv2d_13", 0, 0, {}]]]}, {"config": {"activation": "relu", "name": "activation_13", "trainable": true}, "name": "activation_13", "class_name": "Activation", "inbound_nodes": [[["batch_normalization_14", 0, 0, {}]]]}, {"config": {"padding": "valid", "name": "conv2d_14", "filters": 256, "kernel_size": [1, 1], "kernel_constraint": null, "bias_constraint": null, "trainable": true, "bias_initializer": {"config": {}, "class_name": "Zeros"}, "strides": [1, 1], "data_format": "channels_last", "kernel_regularizer": {"config": {"l1": 0.0, "l2": 9.999999747378752e-05}, "class_name": "L1L2"}, "activation": "linear", "bias_regularizer": null, "use_bias": false, "kernel_initializer": {"config": {"mode": "fan_avg", "scale": 1.0, "seed": null, "distribution": "uniform"}, "class_name": "VarianceScaling"}, "activity_regularizer": null, "dilation_rate": [1, 1]}, "name": "conv2d_14", "class_name": "Conv2D", "inbound_nodes": [[["activation_13", 0, 0, {}]]]}, {"config": {"padding": "valid", "name": "conv2d_15", "filters": 256, "kernel_size": [1, 1], "kernel_constraint": null, "bias_constraint": null, "trainable": true, "bias_initializer": {"config": {}, "class_name": "Zeros"}, "strides": [2, 2], "data_format": "channels_last", "kernel_regularizer": {"config": {"l1": 0.0, "l2": 9.999999747378752e-05}, "class_name": "L1L2"}, "activation": "linear", "bias_regularizer": null, "use_bias": false, "kernel_initializer": {"config": {"mode": "fan_avg", "scale": 1.0, "seed": null, "distribution": "uniform"}, "class_name": "VarianceScaling"}, "activity_regularizer": null, "dilation_rate": [1, 1]}, "name": "conv2d_15", "class_name": "Conv2D", "inbound_nodes": [[["activation_11", 0, 0, {}]]]}, {"config": {"name": "add_4", "trainable": true}, "name": "add_4", "class_name": "Add", "inbound_nodes": [[["conv2d_14", 0, 0, {}], ["conv2d_15", 0, 0, {}]]]}, {"config": {"beta_regularizer": null, "name": "batch_normalization_15", "moving_variance_initializer": {"config": {}, "class_name": "Ones"}, "epsilon": 2e-05, "gamma_constraint": null, "trainable": true, "scale": true, "center": true, "moving_mean_initializer": {"config": {}, "class_name": "Zeros"}, "beta_constraint": null, "axis": -1, "beta_initializer": {"config": {}, "class_name": "Zeros"}, "gamma_initializer": {"config": {}, "class_name": "Ones"}, "gamma_regularizer": null, "momentum": 0.9}, "name": "batch_normalization_15", "class_name": "BatchNormalization", "inbound_nodes": [[["add_4", 0, 0, {}]]]}, {"config": {"activation": "relu", "name": "activation_14", "trainable": true}, "name": "activation_14", "class_name": "Activation", "inbound_nodes": [[["batch_normalization_15", 0, 0, {}]]]}, {"config": {"padding": "valid", "name": "conv2d_16", "filters": 64, "kernel_size": [1, 1], "kernel_constraint": null, "bias_constraint": null, "trainable": true, "bias_initializer": {"config": {}, "class_name": "Zeros"}, "strides": [1, 1], "data_format": "channels_last", "kernel_regularizer": {"config": {"l1": 0.0, "l2": 9.999999747378752e-05}, "class_name": "L1L2"}, "activation": "linear", "bias_regularizer": null, "use_bias": false, "kernel_initializer": {"config": {"mode": "fan_avg", "scale": 1.0, "seed": null, "distribution": "uniform"}, "class_name": "VarianceScaling"}, "activity_regularizer": null, "dilation_rate": [1, 1]}, "name": "conv2d_16", "class_name": "Conv2D", "inbound_nodes": [[["activation_14", 0, 0, {}]]]}, {"config": {"beta_regularizer": null, "name": "batch_normalization_16", "moving_variance_initializer": {"config": {}, "class_name": "Ones"}, "epsilon": 2e-05, "gamma_constraint": null, "trainable": true, "scale": true, "center": true, "moving_mean_initializer": {"config": {}, "class_name": "Zeros"}, "beta_constraint": null, "axis": -1, "beta_initializer": {"config": {}, "class_name": "Zeros"}, "gamma_initializer": {"config": {}, "class_name": "Ones"}, "gamma_regularizer": null, "momentum": 0.9}, "name": "batch_normalization_16", "class_name": "BatchNormalization", "inbound_nodes": [[["conv2d_16", 0, 0, {}]]]}, {"config": {"activation": "relu", "name": "activation_15", "trainable": true}, "name": "activation_15", "class_name": "Activation", "inbound_nodes": [[["batch_normalization_16", 0, 0, {}]]]}, {"config": {"padding": "same", "name": "conv2d_17", "filters": 64, "kernel_size": [3, 3], "kernel_constraint": null, "bias_constraint": null, "trainable": true, "bias_initializer": {"config": {}, "class_name": "Zeros"}, "strides": [1, 1], "data_format": "channels_last", "kernel_regularizer": {"config": {"l1": 0.0, "l2": 9.999999747378752e-05}, "class_name": "L1L2"}, "activation": "linear", "bias_regularizer": null, "use_bias": false, "kernel_initializer": {"config": {"mode": "fan_avg", "scale": 1.0, "seed": null, "distribution": "uniform"}, "class_name": "VarianceScaling"}, "activity_regularizer": null, "dilation_rate": [1, 1]}, "name": "conv2d_17", "class_name": "Conv2D", "inbound_nodes": [[["activation_15", 0, 0, {}]]]}, {"config": {"beta_regularizer": null, "name": "batch_normalization_17", "moving_variance_initializer": {"config": {}, "class_name": "Ones"}, "epsilon": 2e-05, "gamma_constraint": null, "trainable": true, "scale": true, "center": true, "moving_mean_initializer": {"config": {}, "class_name": "Zeros"}, "beta_constraint": null, "axis": -1, "beta_initializer": {"config": {}, "class_name": "Zeros"}, "gamma_initializer": {"config": {}, "class_name": "Ones"}, "gamma_regularizer": null, "momentum": 0.9}, "name": "batch_normalization_17", "class_name": "BatchNormalization", "inbound_nodes": [[["conv2d_17", 0, 0, {}]]]}, {"config": {"activation": "relu", "name": "activation_16", "trainable": true}, "name": "activation_16", "class_name": "Activation", "inbound_nodes": [[["batch_normalization_17", 0, 0, {}]]]}, {"config": {"padding": "valid", "name": "conv2d_18", "filters": 256, "kernel_size": [1, 1], "kernel_constraint": null, "bias_constraint": null, "trainable": true, "bias_initializer": {"config": {}, "class_name": "Zeros"}, "strides": [1, 1], "data_format": "channels_last", "kernel_regularizer": {"config": {"l1": 0.0, "l2": 9.999999747378752e-05}, "class_name": "L1L2"}, "activation": "linear", "bias_regularizer": null, "use_bias": false, "kernel_initializer": {"config": {"mode": "fan_avg", "scale": 1.0, "seed": null, "distribution": "uniform"}, "class_name": "VarianceScaling"}, "activity_regularizer": null, "dilation_rate": [1, 1]}, "name": "conv2d_18", "class_name": "Conv2D", "inbound_nodes": [[["activation_16", 0, 0, {}]]]}, {"config": {"name": "add_5", "trainable": true}, "name": "add_5", "class_name": "Add", "inbound_nodes": [[["conv2d_18", 0, 0, {}], ["add_4", 0, 0, {}]]]}, {"config": {"beta_regularizer": null, "name": "batch_normalization_18", "moving_variance_initializer": {"config": {}, "class_name": "Ones"}, "epsilon": 2e-05, "gamma_constraint": null, "trainable": true, "scale": true, "center": true, "moving_mean_initializer": {"config": {}, "class_name": "Zeros"}, "beta_constraint": null, "axis": -1, "beta_initializer": {"config": {}, "class_name": "Zeros"}, "gamma_initializer": {"config": {}, "class_name": "Ones"}, "gamma_regularizer": null, "momentum": 0.9}, "name": "batch_normalization_18", "class_name": "BatchNormalization", "inbound_nodes": [[["add_5", 0, 0, {}]]]}, {"config": {"activation": "relu", "name": "activation_17", "trainable": true}, "name": "activation_17", "class_name": "Activation", "inbound_nodes": [[["batch_normalization_18", 0, 0, {}]]]}, {"config": {"padding": "valid", "name": "conv2d_19", "filters": 64, "kernel_size": [1, 1], "kernel_constraint": null, "bias_constraint": null, "trainable": true, "bias_initializer": {"config": {}, "class_name": "Zeros"}, "strides": [1, 1], "data_format": "channels_last", "kernel_regularizer": {"config": {"l1": 0.0, "l2": 9.999999747378752e-05}, "class_name": "L1L2"}, "activation": "linear", "bias_regularizer": null, "use_bias": false, "kernel_initializer": {"config": {"mode": "fan_avg", "scale": 1.0, "seed": null, "distribution": "uniform"}, "class_name": "VarianceScaling"}, "activity_regularizer": null, "dilation_rate": [1, 1]}, "name": "conv2d_19", "class_name": "Conv2D", "inbound_nodes": [[["activation_17", 0, 0, {}]]]}, {"config": {"beta_regularizer": null, "name": "batch_normalization_19", "moving_variance_initializer": {"config": {}, "class_name": "Ones"}, "epsilon": 2e-05, "gamma_constraint": null, "trainable": true, "scale": true, "center": true, "moving_mean_initializer": {"config": {}, "class_name": "Zeros"}, "beta_constraint": null, "axis": -1, "beta_initializer": {"config": {}, "class_name": "Zeros"}, "gamma_initializer": {"config": {}, "class_name": "Ones"}, "gamma_regularizer": null, "momentum": 0.9}, "name": "batch_normalization_19", "class_name": "BatchNormalization", "inbound_nodes": [[["conv2d_19", 0, 0, {}]]]}, {"config": {"activation": "relu", "name": "activation_18", "trainable": true}, "name": "activation_18", "class_name": "Activation", "inbound_nodes": [[["batch_normalization_19", 0, 0, {}]]]}, {"config": {"padding": "same", "name": "conv2d_20", "filters": 64, "kernel_size": [3, 3], "kernel_constraint": null, "bias_constraint": null, "trainable": true, "bias_initializer": {"config": {}, "class_name": "Zeros"}, "strides": [1, 1], "data_format": "channels_last", "kernel_regularizer": {"config": {"l1": 0.0, "l2": 9.999999747378752e-05}, "class_name": "L1L2"}, "activation": "linear", "bias_regularizer": null, "use_bias": false, "kernel_initializer": {"config": {"mode": "fan_avg", "scale": 1.0, "seed": null, "distribution": "uniform"}, "class_name": "VarianceScaling"}, "activity_regularizer": null, "dilation_rate": [1, 1]}, "name": "conv2d_20", "class_name": "Conv2D", "inbound_nodes": [[["activation_18", 0, 0, {}]]]}, {"config": {"beta_regularizer": null, "name": "batch_normalization_20", "moving_variance_initializer": {"config": {}, "class_name": "Ones"}, "epsilon": 2e-05, "gamma_constraint": null, "trainable": true, "scale": true, "center": true, "moving_mean_initializer": {"config": {}, "class_name": "Zeros"}, "beta_constraint": null, "axis": -1, "beta_initializer": {"config": {}, "class_name": "Zeros"}, "gamma_initializer": {"config": {}, "class_name": "Ones"}, "gamma_regularizer": null, "momentum": 0.9}, "name": "batch_normalization_20", "class_name": "BatchNormalization", "inbound_nodes": [[["conv2d_20", 0, 0, {}]]]}, {"config": {"activation": "relu", "name": "activation_19", "trainable": true}, "name": "activation_19", "class_name": "Activation", "inbound_nodes": [[["batch_normalization_20", 0, 0, {}]]]}, {"config": {"padding": "valid", "name": "conv2d_21", "filters": 256, "kernel_size": [1, 1], "kernel_constraint": null, "bias_constraint": null, "trainable": true, "bias_initializer": {"config": {}, "class_name": "Zeros"}, "strides": [1, 1], "data_format": "channels_last", "kernel_regularizer": {"config": {"l1": 0.0, "l2": 9.999999747378752e-05}, "class_name": "L1L2"}, "activation": "linear", "bias_regularizer": null, "use_bias": false, "kernel_initializer": {"config": {"mode": "fan_avg", "scale": 1.0, "seed": null, "distribution": "uniform"}, "class_name": "VarianceScaling"}, "activity_regularizer": null, "dilation_rate": [1, 1]}, "name": "conv2d_21", "class_name": "Conv2D", "inbound_nodes": [[["activation_19", 0, 0, {}]]]}, {"config": {"name": "add_6", "trainable": true}, "name": "add_6", "class_name": "Add", "inbound_nodes": [[["conv2d_21", 0, 0, {}], ["add_5", 0, 0, {}]]]}, {"config": {"beta_regularizer": null, "name": "batch_normalization_21", "moving_variance_initializer": {"config": {}, "class_name": "Ones"}, "epsilon": 2e-05, "gamma_constraint": null, "trainable": true, "scale": true, "center": true, "moving_mean_initializer": {"config": {}, "class_name": "Zeros"}, "beta_constraint": null, "axis": -1, "beta_initializer": {"config": {}, "class_name": "Zeros"}, "gamma_initializer": {"config": {}, "class_name": "Ones"}, "gamma_regularizer": null, "momentum": 0.9}, "name": "batch_normalization_21", "class_name": "BatchNormalization", "inbound_nodes": [[["add_6", 0, 0, {}]]]}, {"config": {"activation": "relu", "name": "activation_20", "trainable": true}, "name": "activation_20", "class_name": "Activation", "inbound_nodes": [[["batch_normalization_21", 0, 0, {}]]]}, {"config": {"padding": "valid", "name": "conv2d_22", "filters": 64, "kernel_size": [1, 1], "kernel_constraint": null, "bias_constraint": null, "trainable": true, "bias_initializer": {"config": {}, "class_name": "Zeros"}, "strides": [1, 1], "data_format": "channels_last", "kernel_regularizer": {"config": {"l1": 0.0, "l2": 9.999999747378752e-05}, "class_name": "L1L2"}, "activation": "linear", "bias_regularizer": null, "use_bias": false, "kernel_initializer": {"config": {"mode": "fan_avg", "scale": 1.0, "seed": null, "distribution": "uniform"}, "class_name": "VarianceScaling"}, "activity_regularizer": null, "dilation_rate": [1, 1]}, "name": "conv2d_22", "class_name": "Conv2D", "inbound_nodes": [[["activation_20", 0, 0, {}]]]}, {"config": {"beta_regularizer": null, "name": "batch_normalization_22", "moving_variance_initializer": {"config": {}, "class_name": "Ones"}, "epsilon": 2e-05, "gamma_constraint": null, "trainable": true, "scale": true, "center": true, "moving_mean_initializer": {"config": {}, "class_name": "Zeros"}, "beta_constraint": null, "axis": -1, "beta_initializer": {"config": {}, "class_name": "Zeros"}, "gamma_initializer": {"config": {}, "class_name": "Ones"}, "gamma_regularizer": null, "momentum": 0.9}, "name": "batch_normalization_22", "class_name": "BatchNormalization", "inbound_nodes": [[["conv2d_22", 0, 0, {}]]]}, {"config": {"activation": "relu", "name": "activation_21", "trainable": true}, "name": "activation_21", "class_name": "Activation", "inbound_nodes": [[["batch_normalization_22", 0, 0, {}]]]}, {"config": {"padding": "same", "name": "conv2d_23", "filters": 64, "kernel_size": [3, 3], "kernel_constraint": null, "bias_constraint": null, "trainable": true, "bias_initializer": {"config": {}, "class_name": "Zeros"}, "strides": [1, 1], "data_format": "channels_last", "kernel_regularizer": {"config": {"l1": 0.0, "l2": 9.999999747378752e-05}, "class_name": "L1L2"}, "activation": "linear", "bias_regularizer": null, "use_bias": false, "kernel_initializer": {"config": {"mode": "fan_avg", "scale": 1.0, "seed": null, "distribution": "uniform"}, "class_name": "VarianceScaling"}, "activity_regularizer": null, "dilation_rate": [1, 1]}, "name": "conv2d_23", "class_name": "Conv2D", "inbound_nodes": [[["activation_21", 0, 0, {}]]]}, {"config": {"beta_regularizer": null, "name": "batch_normalization_23", "moving_variance_initializer": {"config": {}, "class_name": "Ones"}, "epsilon": 2e-05, "gamma_constraint": null, "trainable": true, "scale": true, "center": true, "moving_mean_initializer": {"config": {}, "class_name": "Zeros"}, "beta_constraint": null, "axis": -1, "beta_initializer": {"config": {}, "class_name": "Zeros"}, "gamma_initializer": {"config": {}, "class_name": "Ones"}, "gamma_regularizer": null, "momentum": 0.9}, "name": "batch_normalization_23", "class_name": "BatchNormalization", "inbound_nodes": [[["conv2d_23", 0, 0, {}]]]}, {"config": {"activation": "relu", "name": "activation_22", "trainable": true}, "name": "activation_22", "class_name": "Activation", "inbound_nodes": [[["batch_normalization_23", 0, 0, {}]]]}, {"config": {"padding": "valid", "name": "conv2d_24", "filters": 256, "kernel_size": [1, 1], "kernel_constraint": null, "bias_constraint": null, "trainable": true, "bias_initializer": {"config": {}, "class_name": "Zeros"}, "strides": [1, 1], "data_format": "channels_last", "kernel_regularizer": {"config": {"l1": 0.0, "l2": 9.999999747378752e-05}, "class_name": "L1L2"}, "activation": "linear", "bias_regularizer": null, "use_bias": false, "kernel_initializer": {"config": {"mode": "fan_avg", "scale": 1.0, "seed": null, "distribution": "uniform"}, "class_name": "VarianceScaling"}, "activity_regularizer": null, "dilation_rate": [1, 1]}, "name": "conv2d_24", "class_name": "Conv2D", "inbound_nodes": [[["activation_22", 0, 0, {}]]]}, {"config": {"name": "add_7", "trainable": true}, "name": "add_7", "class_name": "Add", "inbound_nodes": [[["conv2d_24", 0, 0, {}], ["add_6", 0, 0, {}]]]}, {"config": {"beta_regularizer": null, "name": "batch_normalization_24", "moving_variance_initializer": {"config": {}, "class_name": "Ones"}, "epsilon": 2e-05, "gamma_constraint": null, "trainable": true, "scale": true, "center": true, "moving_mean_initializer": {"config": {}, "class_name": "Zeros"}, "beta_constraint": null, "axis": -1, "beta_initializer": {"config": {}, "class_name": "Zeros"}, "gamma_initializer": {"config": {}, "class_name": "Ones"}, "gamma_regularizer": null, "momentum": 0.9}, "name": "batch_normalization_24", "class_name": "BatchNormalization", "inbound_nodes": [[["add_7", 0, 0, {}]]]}, {"config": {"activation": "relu", "name": "activation_23", "trainable": true}, "name": "activation_23", "class_name": "Activation", "inbound_nodes": [[["batch_normalization_24", 0, 0, {}]]]}, {"config": {"padding": "valid", "name": "conv2d_25", "filters": 128, "kernel_size": [1, 1], "kernel_constraint": null, "bias_constraint": null, "trainable": true, "bias_initializer": {"config": {}, "class_name": "Zeros"}, "strides": [1, 1], "data_format": "channels_last", "kernel_regularizer": {"config": {"l1": 0.0, "l2": 9.999999747378752e-05}, "class_name": "L1L2"}, "activation": "linear", "bias_regularizer": null, "use_bias": false, "kernel_initializer": {"config": {"mode": "fan_avg", "scale": 1.0, "seed": null, "distribution": "uniform"}, "class_name": "VarianceScaling"}, "activity_regularizer": null, "dilation_rate": [1, 1]}, "name": "conv2d_25", "class_name": "Conv2D", "inbound_nodes": [[["activation_23", 0, 0, {}]]]}, {"config": {"beta_regularizer": null, "name": "batch_normalization_25", "moving_variance_initializer": {"config": {}, "class_name": "Ones"}, "epsilon": 2e-05, "gamma_constraint": null, "trainable": true, "scale": true, "center": true, "moving_mean_initializer": {"config": {}, "class_name": "Zeros"}, "beta_constraint": null, "axis": -1, "beta_initializer": {"config": {}, "class_name": "Zeros"}, "gamma_initializer": {"config": {}, "class_name": "Ones"}, "gamma_regularizer": null, "momentum": 0.9}, "name": "batch_normalization_25", "class_name": "BatchNormalization", "inbound_nodes": [[["conv2d_25", 0, 0, {}]]]}, {"config": {"activation": "relu", "name": "activation_24", "trainable": true}, "name": "activation_24", "class_name": "Activation", "inbound_nodes": [[["batch_normalization_25", 0, 0, {}]]]}, {"config": {"padding": "same", "name": "conv2d_26", "filters": 128, "kernel_size": [3, 3], "kernel_constraint": null, "bias_constraint": null, "trainable": true, "bias_initializer": {"config": {}, "class_name": "Zeros"}, "strides": [2, 2], "data_format": "channels_last", "kernel_regularizer": {"config": {"l1": 0.0, "l2": 9.999999747378752e-05}, "class_name": "L1L2"}, "activation": "linear", "bias_regularizer": null, "use_bias": false, "kernel_initializer": {"config": {"mode": "fan_avg", "scale": 1.0, "seed": null, "distribution": "uniform"}, "class_name": "VarianceScaling"}, "activity_regularizer": null, "dilation_rate": [1, 1]}, "name": "conv2d_26", "class_name": "Conv2D", "inbound_nodes": [[["activation_24", 0, 0, {}]]]}, {"config": {"beta_regularizer": null, "name": "batch_normalization_26", "moving_variance_initializer": {"config": {}, "class_name": "Ones"}, "epsilon": 2e-05, "gamma_constraint": null, "trainable": true, "scale": true, "center": true, "moving_mean_initializer": {"config": {}, "class_name": "Zeros"}, "beta_constraint": null, "axis": -1, "beta_initializer": {"config": {}, "class_name": "Zeros"}, "gamma_initializer": {"config": {}, "class_name": "Ones"}, "gamma_regularizer": null, "momentum": 0.9}, "name": "batch_normalization_26", "class_name": "BatchNormalization", "inbound_nodes": [[["conv2d_26", 0, 0, {}]]]}, {"config": {"activation": "relu", "name": "activation_25", "trainable": true}, "name": "activation_25", "class_name": "Activation", "inbound_nodes": [[["batch_normalization_26", 0, 0, {}]]]}, {"config": {"padding": "valid", "name": "conv2d_27", "filters": 512, "kernel_size": [1, 1], "kernel_constraint": null, "bias_constraint": null, "trainable": true, "bias_initializer": {"config": {}, "class_name": "Zeros"}, "strides": [1, 1], "data_format": "channels_last", "kernel_regularizer": {"config": {"l1": 0.0, "l2": 9.999999747378752e-05}, "class_name": "L1L2"}, "activation": "linear", "bias_regularizer": null, "use_bias": false, "kernel_initializer": {"config": {"mode": "fan_avg", "scale": 1.0, "seed": null, "distribution": "uniform"}, "class_name": "VarianceScaling"}, "activity_regularizer": null, "dilation_rate": [1, 1]}, "name": "conv2d_27", "class_name": "Conv2D", "inbound_nodes": [[["activation_25", 0, 0, {}]]]}, {"config": {"padding": "valid", "name": "conv2d_28", "filters": 512, "kernel_size": [1, 1], "kernel_constraint": null, "bias_constraint": null, "trainable": true, "bias_initializer": {"config": {}, "class_name": "Zeros"}, "strides": [2, 2], "data_format": "channels_last", "kernel_regularizer": {"config": {"l1": 0.0, "l2": 9.999999747378752e-05}, "class_name": "L1L2"}, "activation": "linear", "bias_regularizer": null, "use_bias": false, "kernel_initializer": {"config": {"mode": "fan_avg", "scale": 1.0, "seed": null, "distribution": "uniform"}, "class_name": "VarianceScaling"}, "activity_regularizer": null, "dilation_rate": [1, 1]}, "name": "conv2d_28", "class_name": "Conv2D", "inbound_nodes": [[["activation_23", 0, 0, {}]]]}, {"config": {"name": "add_8", "trainable": true}, "name": "add_8", "class_name": "Add", "inbound_nodes": [[["conv2d_27", 0, 0, {}], ["conv2d_28", 0, 0, {}]]]}, {"config": {"beta_regularizer": null, "name": "batch_normalization_27", "moving_variance_initializer": {"config": {}, "class_name": "Ones"}, "epsilon": 2e-05, "gamma_constraint": null, "trainable": true, "scale": true, "center": true, "moving_mean_initializer": {"config": {}, "class_name": "Zeros"}, "beta_constraint": null, "axis": -1, "beta_initializer": {"config": {}, "class_name": "Zeros"}, "gamma_initializer": {"config": {}, "class_name": "Ones"}, "gamma_regularizer": null, "momentum": 0.9}, "name": "batch_normalization_27", "class_name": "BatchNormalization", "inbound_nodes": [[["add_8", 0, 0, {}]]]}, {"config": {"activation": "relu", "name": "activation_26", "trainable": true}, "name": "activation_26", "class_name": "Activation", "inbound_nodes": [[["batch_normalization_27", 0, 0, {}]]]}, {"config": {"padding": "valid", "name": "conv2d_29", "filters": 128, "kernel_size": [1, 1], "kernel_constraint": null, "bias_constraint": null, "trainable": true, "bias_initializer": {"config": {}, "class_name": "Zeros"}, "strides": [1, 1], "data_format": "channels_last", "kernel_regularizer": {"config": {"l1": 0.0, "l2": 9.999999747378752e-05}, "class_name": "L1L2"}, "activation": "linear", "bias_regularizer": null, "use_bias": false, "kernel_initializer": {"config": {"mode": "fan_avg", "scale": 1.0, "seed": null, "distribution": "uniform"}, "class_name": "VarianceScaling"}, "activity_regularizer": null, "dilation_rate": [1, 1]}, "name": "conv2d_29", "class_name": "Conv2D", "inbound_nodes": [[["activation_26", 0, 0, {}]]]}, {"config": {"beta_regularizer": null, "name": "batch_normalization_28", "moving_variance_initializer": {"config": {}, "class_name": "Ones"}, "epsilon": 2e-05, "gamma_constraint": null, "trainable": true, "scale": true, "center": true, "moving_mean_initializer": {"config": {}, "class_name": "Zeros"}, "beta_constraint": null, "axis": -1, "beta_initializer": {"config": {}, "class_name": "Zeros"}, "gamma_initializer": {"config": {}, "class_name": "Ones"}, "gamma_regularizer": null, "momentum": 0.9}, "name": "batch_normalization_28", "class_name": "BatchNormalization", "inbound_nodes": [[["conv2d_29", 0, 0, {}]]]}, {"config": {"activation": "relu", "name": "activation_27", "trainable": true}, "name": "activation_27", "class_name": "Activation", "inbound_nodes": [[["batch_normalization_28", 0, 0, {}]]]}, {"config": {"padding": "same", "name": "conv2d_30", "filters": 128, "kernel_size": [3, 3], "kernel_constraint": null, "bias_constraint": null, "trainable": true, "bias_initializer": {"config": {}, "class_name": "Zeros"}, "strides": [1, 1], "data_format": "channels_last", "kernel_regularizer": {"config": {"l1": 0.0, "l2": 9.999999747378752e-05}, "class_name": "L1L2"}, "activation": "linear", "bias_regularizer": null, "use_bias": false, "kernel_initializer": {"config": {"mode": "fan_avg", "scale": 1.0, "seed": null, "distribution": "uniform"}, "class_name": "VarianceScaling"}, "activity_regularizer": null, "dilation_rate": [1, 1]}, "name": "conv2d_30", "class_name": "Conv2D", "inbound_nodes": [[["activation_27", 0, 0, {}]]]}, {"config": {"beta_regularizer": null, "name": "batch_normalization_29", "moving_variance_initializer": {"config": {}, "class_name": "Ones"}, "epsilon": 2e-05, "gamma_constraint": null, "trainable": true, "scale": true, "center": true, "moving_mean_initializer": {"config": {}, "class_name": "Zeros"}, "beta_constraint": null, "axis": -1, "beta_initializer": {"config": {}, "class_name": "Zeros"}, "gamma_initializer": {"config": {}, "class_name": "Ones"}, "gamma_regularizer": null, "momentum": 0.9}, "name": "batch_normalization_29", "class_name": "BatchNormalization", "inbound_nodes": [[["conv2d_30", 0, 0, {}]]]}, {"config": {"activation": "relu", "name": "activation_28", "trainable": true}, "name": "activation_28", "class_name": "Activation", "inbound_nodes": [[["batch_normalization_29", 0, 0, {}]]]}, {"config": {"padding": "valid", "name": "conv2d_31", "filters": 512, "kernel_size": [1, 1], "kernel_constraint": null, "bias_constraint": null, "trainable": true, "bias_initializer": {"config": {}, "class_name": "Zeros"}, "strides": [1, 1], "data_format": "channels_last", "kernel_regularizer": {"config": {"l1": 0.0, "l2": 9.999999747378752e-05}, "class_name": "L1L2"}, "activation": "linear", "bias_regularizer": null, "use_bias": false, "kernel_initializer": {"config": {"mode": "fan_avg", "scale": 1.0, "seed": null, "distribution": "uniform"}, "class_name": "VarianceScaling"}, "activity_regularizer": null, "dilation_rate": [1, 1]}, "name": "conv2d_31", "class_name": "Conv2D", "inbound_nodes": [[["activation_28", 0, 0, {}]]]}, {"config": {"name": "add_9", "trainable": true}, "name": "add_9", "class_name": "Add", "inbound_nodes": [[["conv2d_31", 0, 0, {}], ["add_8", 0, 0, {}]]]}, {"config": {"beta_regularizer": null, "name": "batch_normalization_30", "moving_variance_initializer": {"config": {}, "class_name": "Ones"}, "epsilon": 2e-05, "gamma_constraint": null, "trainable": true, "scale": true, "center": true, "moving_mean_initializer": {"config": {}, "class_name": "Zeros"}, "beta_constraint": null, "axis": -1, "beta_initializer": {"config": {}, "class_name": "Zeros"}, "gamma_initializer": {"config": {}, "class_name": "Ones"}, "gamma_regularizer": null, "momentum": 0.9}, "name": "batch_normalization_30", "class_name": "BatchNormalization", "inbound_nodes": [[["add_9", 0, 0, {}]]]}, {"config": {"activation": "relu", "name": "activation_29", "trainable": true}, "name": "activation_29", "class_name": "Activation", "inbound_nodes": [[["batch_normalization_30", 0, 0, {}]]]}, {"config": {"padding": "valid", "name": "conv2d_32", "filters": 128, "kernel_size": [1, 1], "kernel_constraint": null, "bias_constraint": null, "trainable": true, "bias_initializer": {"config": {}, "class_name": "Zeros"}, "strides": [1, 1], "data_format": "channels_last", "kernel_regularizer": {"config": {"l1": 0.0, "l2": 9.999999747378752e-05}, "class_name": "L1L2"}, "activation": "linear", "bias_regularizer": null, "use_bias": false, "kernel_initializer": {"config": {"mode": "fan_avg", "scale": 1.0, "seed": null, "distribution": "uniform"}, "class_name": "VarianceScaling"}, "activity_regularizer": null, "dilation_rate": [1, 1]}, "name": "conv2d_32", "class_name": "Conv2D", "inbound_nodes": [[["activation_29", 0, 0, {}]]]}, {"config": {"beta_regularizer": null, "name": "batch_normalization_31", "moving_variance_initializer": {"config": {}, "class_name": "Ones"}, "epsilon": 2e-05, "gamma_constraint": null, "trainable": true, "scale": true, "center": true, "moving_mean_initializer": {"config": {}, "class_name": "Zeros"}, "beta_constraint": null, "axis": -1, "beta_initializer": {"config": {}, "class_name": "Zeros"}, "gamma_initializer": {"config": {}, "class_name": "Ones"}, "gamma_regularizer": null, "momentum": 0.9}, "name": "batch_normalization_31", "class_name": "BatchNormalization", "inbound_nodes": [[["conv2d_32", 0, 0, {}]]]}, {"config": {"activation": "relu", "name": "activation_30", "trainable": true}, "name": "activation_30", "class_name": "Activation", "inbound_nodes": [[["batch_normalization_31", 0, 0, {}]]]}, {"config": {"padding": "same", "name": "conv2d_33", "filters": 128, "kernel_size": [3, 3], "kernel_constraint": null, "bias_constraint": null, "trainable": true, "bias_initializer": {"config": {}, "class_name": "Zeros"}, "strides": [1, 1], "data_format": "channels_last", "kernel_regularizer": {"config": {"l1": 0.0, "l2": 9.999999747378752e-05}, "class_name": "L1L2"}, "activation": "linear", "bias_regularizer": null, "use_bias": false, "kernel_initializer": {"config": {"mode": "fan_avg", "scale": 1.0, "seed": null, "distribution": "uniform"}, "class_name": "VarianceScaling"}, "activity_regularizer": null, "dilation_rate": [1, 1]}, "name": "conv2d_33", "class_name": "Conv2D", "inbound_nodes": [[["activation_30", 0, 0, {}]]]}, {"config": {"beta_regularizer": null, "name": "batch_normalization_32", "moving_variance_initializer": {"config": {}, "class_name": "Ones"}, "epsilon": 2e-05, "gamma_constraint": null, "trainable": true, "scale": true, "center": true, "moving_mean_initializer": {"config": {}, "class_name": "Zeros"}, "beta_constraint": null, "axis": -1, "beta_initializer": {"config": {}, "class_name": "Zeros"}, "gamma_initializer": {"config": {}, "class_name": "Ones"}, "gamma_regularizer": null, "momentum": 0.9}, "name": "batch_normalization_32", "class_name": "BatchNormalization", "inbound_nodes": [[["conv2d_33", 0, 0, {}]]]}, {"config": {"activation": "relu", "name": "activation_31", "trainable": true}, "name": "activation_31", "class_name": "Activation", "inbound_nodes": [[["batch_normalization_32", 0, 0, {}]]]}, {"config": {"padding": "valid", "name": "conv2d_34", "filters": 512, "kernel_size": [1, 1], "kernel_constraint": null, "bias_constraint": null, "trainable": true, "bias_initializer": {"config": {}, "class_name": "Zeros"}, "strides": [1, 1], "data_format": "channels_last", "kernel_regularizer": {"config": {"l1": 0.0, "l2": 9.999999747378752e-05}, "class_name": "L1L2"}, "activation": "linear", "bias_regularizer": null, "use_bias": false, "kernel_initializer": {"config": {"mode": "fan_avg", "scale": 1.0, "seed": null, "distribution": "uniform"}, "class_name": "VarianceScaling"}, "activity_regularizer": null, "dilation_rate": [1, 1]}, "name": "conv2d_34", "class_name": "Conv2D", "inbound_nodes": [[["activation_31", 0, 0, {}]]]}, {"config": {"name": "add_10", "trainable": true}, "name": "add_10", "class_name": "Add", "inbound_nodes": [[["conv2d_34", 0, 0, {}], ["add_9", 0, 0, {}]]]}, {"config": {"beta_regularizer": null, "name": "batch_normalization_33", "moving_variance_initializer": {"config": {}, "class_name": "Ones"}, "epsilon": 2e-05, "gamma_constraint": null, "trainable": true, "scale": true, "center": true, "moving_mean_initializer": {"config": {}, "class_name": "Zeros"}, "beta_constraint": null, "axis": -1, "beta_initializer": {"config": {}, "class_name": "Zeros"}, "gamma_initializer": {"config": {}, "class_name": "Ones"}, "gamma_regularizer": null, "momentum": 0.9}, "name": "batch_normalization_33", "class_name": "BatchNormalization", "inbound_nodes": [[["add_10", 0, 0, {}]]]}, {"config": {"activation": "relu", "name": "activation_32", "trainable": true}, "name": "activation_32", "class_name": "Activation", "inbound_nodes": [[["batch_normalization_33", 0, 0, {}]]]}, {"config": {"padding": "valid", "name": "conv2d_35", "filters": 128, "kernel_size": [1, 1], "kernel_constraint": null, "bias_constraint": null, "trainable": true, "bias_initializer": {"config": {}, "class_name": "Zeros"}, "strides": [1, 1], "data_format": "channels_last", "kernel_regularizer": {"config": {"l1": 0.0, "l2": 9.999999747378752e-05}, "class_name": "L1L2"}, "activation": "linear", "bias_regularizer": null, "use_bias": false, "kernel_initializer": {"config": {"mode": "fan_avg", "scale": 1.0, "seed": null, "distribution": "uniform"}, "class_name": "VarianceScaling"}, "activity_regularizer": null, "dilation_rate": [1, 1]}, "name": "conv2d_35", "class_name": "Conv2D", "inbound_nodes": [[["activation_32", 0, 0, {}]]]}, {"config": {"beta_regularizer": null, "name": "batch_normalization_34", "moving_variance_initializer": {"config": {}, "class_name": "Ones"}, "epsilon": 2e-05, "gamma_constraint": null, "trainable": true, "scale": true, "center": true, "moving_mean_initializer": {"config": {}, "class_name": "Zeros"}, "beta_constraint": null, "axis": -1, "beta_initializer": {"config": {}, "class_name": "Zeros"}, "gamma_initializer": {"config": {}, "class_name": "Ones"}, "gamma_regularizer": null, "momentum": 0.9}, "name": "batch_normalization_34", "class_name": "BatchNormalization", "inbound_nodes": [[["conv2d_35", 0, 0, {}]]]}, {"config": {"activation": "relu", "name": "activation_33", "trainable": true}, "name": "activation_33", "class_name": "Activation", "inbound_nodes": [[["batch_normalization_34", 0, 0, {}]]]}, {"config": {"padding": "same", "name": "conv2d_36", "filters": 128, "kernel_size": [3, 3], "kernel_constraint": null, "bias_constraint": null, "trainable": true, "bias_initializer": {"config": {}, "class_name": "Zeros"}, "strides": [1, 1], "data_format": "channels_last", "kernel_regularizer": {"config": {"l1": 0.0, "l2": 9.999999747378752e-05}, "class_name": "L1L2"}, "activation": "linear", "bias_regularizer": null, "use_bias": false, "kernel_initializer": {"config": {"mode": "fan_avg", "scale": 1.0, "seed": null, "distribution": "uniform"}, "class_name": "VarianceScaling"}, "activity_regularizer": null, "dilation_rate": [1, 1]}, "name": "conv2d_36", "class_name": "Conv2D", "inbound_nodes": [[["activation_33", 0, 0, {}]]]}, {"config": {"beta_regularizer": null, "name": "batch_normalization_35", "moving_variance_initializer": {"config": {}, "class_name": "Ones"}, "epsilon": 2e-05, "gamma_constraint": null, "trainable": true, "scale": true, "center": true, "moving_mean_initializer": {"config": {}, "class_name": "Zeros"}, "beta_constraint": null, "axis": -1, "beta_initializer": {"config": {}, "class_name": "Zeros"}, "gamma_initializer": {"config": {}, "class_name": "Ones"}, "gamma_regularizer": null, "momentum": 0.9}, "name": "batch_normalization_35", "class_name": "BatchNormalization", "inbound_nodes": [[["conv2d_36", 0, 0, {}]]]}, {"config": {"activation": "relu", "name": "activation_34", "trainable": true}, "name": "activation_34", "class_name": "Activation", "inbound_nodes": [[["batch_normalization_35", 0, 0, {}]]]}, {"config": {"padding": "valid", "name": "conv2d_37", "filters": 512, "kernel_size": [1, 1], "kernel_constraint": null, "bias_constraint": null, "trainable": true, "bias_initializer": {"config": {}, "class_name": "Zeros"}, "strides": [1, 1], "data_format": "channels_last", "kernel_regularizer": {"config": {"l1": 0.0, "l2": 9.999999747378752e-05}, "class_name": "L1L2"}, "activation": "linear", "bias_regularizer": null, "use_bias": false, "kernel_initializer": {"config": {"mode": "fan_avg", "scale": 1.0, "seed": null, "distribution": "uniform"}, "class_name": "VarianceScaling"}, "activity_regularizer": null, "dilation_rate": [1, 1]}, "name": "conv2d_37", "class_name": "Conv2D", "inbound_nodes": [[["activation_34", 0, 0, {}]]]}, {"config": {"name": "add_11", "trainable": true}, "name": "add_11", "class_name": "Add", "inbound_nodes": [[["conv2d_37", 0, 0, {}], ["add_10", 0, 0, {}]]]}, {"config": {"beta_regularizer": null, "name": "batch_normalization_36", "moving_variance_initializer": {"config": {}, "class_name": "Ones"}, "epsilon": 2e-05, "gamma_constraint": null, "trainable": true, "scale": true, "center": true, "moving_mean_initializer": {"config": {}, "class_name": "Zeros"}, "beta_constraint": null, "axis": -1, "beta_initializer": {"config": {}, "class_name": "Zeros"}, "gamma_initializer": {"config": {}, "class_name": "Ones"}, "gamma_regularizer": null, "momentum": 0.9}, "name": "batch_normalization_36", "class_name": "BatchNormalization", "inbound_nodes": [[["add_11", 0, 0, {}]]]}, {"config": {"activation": "relu", "name": "activation_35", "trainable": true}, "name": "activation_35", "class_name": "Activation", "inbound_nodes": [[["batch_normalization_36", 0, 0, {}]]]}, {"config": {"padding": "valid", "name": "conv2d_38", "filters": 128, "kernel_size": [1, 1], "kernel_constraint": null, "bias_constraint": null, "trainable": true, "bias_initializer": {"config": {}, "class_name": "Zeros"}, "strides": [1, 1], "data_format": "channels_last", "kernel_regularizer": {"config": {"l1": 0.0, "l2": 9.999999747378752e-05}, "class_name": "L1L2"}, "activation": "linear", "bias_regularizer": null, "use_bias": false, "kernel_initializer": {"config": {"mode": "fan_avg", "scale": 1.0, "seed": null, "distribution": "uniform"}, "class_name": "VarianceScaling"}, "activity_regularizer": null, "dilation_rate": [1, 1]}, "name": "conv2d_38", "class_name": "Conv2D", "inbound_nodes": [[["activation_35", 0, 0, {}]]]}, {"config": {"beta_regularizer": null, "name": "batch_normalization_37", "moving_variance_initializer": {"config": {}, "class_name": "Ones"}, "epsilon": 2e-05, "gamma_constraint": null, "trainable": true, "scale": true, "center": true, "moving_mean_initializer": {"config": {}, "class_name": "Zeros"}, "beta_constraint": null, "axis": -1, "beta_initializer": {"config": {}, "class_name": "Zeros"}, "gamma_initializer": {"config": {}, "class_name": "Ones"}, "gamma_regularizer": null, "momentum": 0.9}, "name": "batch_normalization_37", "class_name": "BatchNormalization", "inbound_nodes": [[["conv2d_38", 0, 0, {}]]]}, {"config": {"activation": "relu", "name": "activation_36", "trainable": true}, "name": "activation_36", "class_name": "Activation", "inbound_nodes": [[["batch_normalization_37", 0, 0, {}]]]}, {"config": {"padding": "same", "name": "conv2d_39", "filters": 128, "kernel_size": [3, 3], "kernel_constraint": null, "bias_constraint": null, "trainable": true, "bias_initializer": {"config": {}, "class_name": "Zeros"}, "strides": [1, 1], "data_format": "channels_last", "kernel_regularizer": {"config": {"l1": 0.0, "l2": 9.999999747378752e-05}, "class_name": "L1L2"}, "activation": "linear", "bias_regularizer": null, "use_bias": false, "kernel_initializer": {"config": {"mode": "fan_avg", "scale": 1.0, "seed": null, "distribution": "uniform"}, "class_name": "VarianceScaling"}, "activity_regularizer": null, "dilation_rate": [1, 1]}, "name": "conv2d_39", "class_name": "Conv2D", "inbound_nodes": [[["activation_36", 0, 0, {}]]]}, {"config": {"beta_regularizer": null, "name": "batch_normalization_38", "moving_variance_initializer": {"config": {}, "class_name": "Ones"}, "epsilon": 2e-05, "gamma_constraint": null, "trainable": true, "scale": true, "center": true, "moving_mean_initializer": {"config": {}, "class_name": "Zeros"}, "beta_constraint": null, "axis": -1, "beta_initializer": {"config": {}, "class_name": "Zeros"}, "gamma_initializer": {"config": {}, "class_name": "Ones"}, "gamma_regularizer": null, "momentum": 0.9}, "name": "batch_normalization_38", "class_name": "BatchNormalization", "inbound_nodes": [[["conv2d_39", 0, 0, {}]]]}, {"config": {"activation": "relu", "name": "activation_37", "trainable": true}, "name": "activation_37", "class_name": "Activation", "inbound_nodes": [[["batch_normalization_38", 0, 0, {}]]]}, {"config": {"padding": "valid", "name": "conv2d_40", "filters": 512, "kernel_size": [1, 1], "kernel_constraint": null, "bias_constraint": null, "trainable": true, "bias_initializer": {"config": {}, "class_name": "Zeros"}, "strides": [1, 1], "data_format": "channels_last", "kernel_regularizer": {"config": {"l1": 0.0, "l2": 9.999999747378752e-05}, "class_name": "L1L2"}, "activation": "linear", "bias_regularizer": null, "use_bias": false, "kernel_initializer": {"config": {"mode": "fan_avg", "scale": 1.0, "seed": null, "distribution": "uniform"}, "class_name": "VarianceScaling"}, "activity_regularizer": null, "dilation_rate": [1, 1]}, "name": "conv2d_40", "class_name": "Conv2D", "inbound_nodes": [[["activation_37", 0, 0, {}]]]}, {"config": {"name": "add_12", "trainable": true}, "name": "add_12", "class_name": "Add", "inbound_nodes": [[["conv2d_40", 0, 0, {}], ["add_11", 0, 0, {}]]]}, {"config": {"beta_regularizer": null, "name": "batch_normalization_39", "moving_variance_initializer": {"config": {}, "class_name": "Ones"}, "epsilon": 2e-05, "gamma_constraint": null, "trainable": true, "scale": true, "center": true, "moving_mean_initializer": {"config": {}, "class_name": "Zeros"}, "beta_constraint": null, "axis": -1, "beta_initializer": {"config": {}, "class_name": "Zeros"}, "gamma_initializer": {"config": {}, "class_name": "Ones"}, "gamma_regularizer": null, "momentum": 0.9}, "name": "batch_normalization_39", "class_name": "BatchNormalization", "inbound_nodes": [[["add_12", 0, 0, {}]]]}, {"config": {"activation": "relu", "name": "activation_38", "trainable": true}, "name": "activation_38", "class_name": "Activation", "inbound_nodes": [[["batch_normalization_39", 0, 0, {}]]]}, {"config": {"padding": "valid", "name": "conv2d_41", "filters": 128, "kernel_size": [1, 1], "kernel_constraint": null, "bias_constraint": null, "trainable": true, "bias_initializer": {"config": {}, "class_name": "Zeros"}, "strides": [1, 1], "data_format": "channels_last", "kernel_regularizer": {"config": {"l1": 0.0, "l2": 9.999999747378752e-05}, "class_name": "L1L2"}, "activation": "linear", "bias_regularizer": null, "use_bias": false, "kernel_initializer": {"config": {"mode": "fan_avg", "scale": 1.0, "seed": null, "distribution": "uniform"}, "class_name": "VarianceScaling"}, "activity_regularizer": null, "dilation_rate": [1, 1]}, "name": "conv2d_41", "class_name": "Conv2D", "inbound_nodes": [[["activation_38", 0, 0, {}]]]}, {"config": {"beta_regularizer": null, "name": "batch_normalization_40", "moving_variance_initializer": {"config": {}, "class_name": "Ones"}, "epsilon": 2e-05, "gamma_constraint": null, "trainable": true, "scale": true, "center": true, "moving_mean_initializer": {"config": {}, "class_name": "Zeros"}, "beta_constraint": null, "axis": -1, "beta_initializer": {"config": {}, "class_name": "Zeros"}, "gamma_initializer": {"config": {}, "class_name": "Ones"}, "gamma_regularizer": null, "momentum": 0.9}, "name": "batch_normalization_40", "class_name": "BatchNormalization", "inbound_nodes": [[["conv2d_41", 0, 0, {}]]]}, {"config": {"activation": "relu", "name": "activation_39", "trainable": true}, "name": "activation_39", "class_name": "Activation", "inbound_nodes": [[["batch_normalization_40", 0, 0, {}]]]}, {"config": {"padding": "same", "name": "conv2d_42", "filters": 128, "kernel_size": [3, 3], "kernel_constraint": null, "bias_constraint": null, "trainable": true, "bias_initializer": {"config": {}, "class_name": "Zeros"}, "strides": [1, 1], "data_format": "channels_last", "kernel_regularizer": {"config": {"l1": 0.0, "l2": 9.999999747378752e-05}, "class_name": "L1L2"}, "activation": "linear", "bias_regularizer": null, "use_bias": false, "kernel_initializer": {"config": {"mode": "fan_avg", "scale": 1.0, "seed": null, "distribution": "uniform"}, "class_name": "VarianceScaling"}, "activity_regularizer": null, "dilation_rate": [1, 1]}, "name": "conv2d_42", "class_name": "Conv2D", "inbound_nodes": [[["activation_39", 0, 0, {}]]]}, {"config": {"beta_regularizer": null, "name": "batch_normalization_41", "moving_variance_initializer": {"config": {}, "class_name": "Ones"}, "epsilon": 2e-05, "gamma_constraint": null, "trainable": true, "scale": true, "center": true, "moving_mean_initializer": {"config": {}, "class_name": "Zeros"}, "beta_constraint": null, "axis": -1, "beta_initializer": {"config": {}, "class_name": "Zeros"}, "gamma_initializer": {"config": {}, "class_name": "Ones"}, "gamma_regularizer": null, "momentum": 0.9}, "name": "batch_normalization_41", "class_name": "BatchNormalization", "inbound_nodes": [[["conv2d_42", 0, 0, {}]]]}, {"config": {"activation": "relu", "name": "activation_40", "trainable": true}, "name": "activation_40", "class_name": "Activation", "inbound_nodes": [[["batch_normalization_41", 0, 0, {}]]]}, {"config": {"padding": "valid", "name": "conv2d_43", "filters": 512, "kernel_size": [1, 1], "kernel_constraint": null, "bias_constraint": null, "trainable": true, "bias_initializer": {"config": {}, "class_name": "Zeros"}, "strides": [1, 1], "data_format": "channels_last", "kernel_regularizer": {"config": {"l1": 0.0, "l2": 9.999999747378752e-05}, "class_name": "L1L2"}, "activation": "linear", "bias_regularizer": null, "use_bias": false, "kernel_initializer": {"config": {"mode": "fan_avg", "scale": 1.0, "seed": null, "distribution": "uniform"}, "class_name": "VarianceScaling"}, "activity_regularizer": null, "dilation_rate": [1, 1]}, "name": "conv2d_43", "class_name": "Conv2D", "inbound_nodes": [[["activation_40", 0, 0, {}]]]}, {"config": {"name": "add_13", "trainable": true}, "name": "add_13", "class_name": "Add", "inbound_nodes": [[["conv2d_43", 0, 0, {}], ["add_12", 0, 0, {}]]]}, {"config": {"beta_regularizer": null, "name": "batch_normalization_42", "moving_variance_initializer": {"config": {}, "class_name": "Ones"}, "epsilon": 2e-05, "gamma_constraint": null, "trainable": true, "scale": true, "center": true, "moving_mean_initializer": {"config": {}, "class_name": "Zeros"}, "beta_constraint": null, "axis": -1, "beta_initializer": {"config": {}, "class_name": "Zeros"}, "gamma_initializer": {"config": {}, "class_name": "Ones"}, "gamma_regularizer": null, "momentum": 0.9}, "name": "batch_normalization_42", "class_name": "BatchNormalization", "inbound_nodes": [[["add_13", 0, 0, {}]]]}, {"config": {"activation": "relu", "name": "activation_41", "trainable": true}, "name": "activation_41", "class_name": "Activation", "inbound_nodes": [[["batch_normalization_42", 0, 0, {}]]]}, {"config": {"padding": "valid", "name": "average_pooling2d_1", "data_format": "channels_last", "pool_size": [8, 8], "strides": [8, 8], "trainable": true}, "name": "average_pooling2d_1", "class_name": "AveragePooling2D", "inbound_nodes": [[["activation_41", 0, 0, {}]]]}, {"config": {"name": "flatten_1", "trainable": true}, "name": "flatten_1", "class_name": "Flatten", "inbound_nodes": [[["average_pooling2d_1", 0, 0, {}]]]}, {"config": {"name": "dense_1", "activity_regularizer": null, "bias_constraint": null, "use_bias": true, "kernel_initializer": {"config": {"mode": "fan_avg", "scale": 1.0, "seed": null, "distribution": "uniform"}, "class_name": "VarianceScaling"}, "activation": "linear", "kernel_regularizer": {"config": {"l1": 0.0, "l2": 0.0005000000237487257}, "class_name": "L1L2"}, "units": 2, "bias_regularizer": null, "bias_initializer": {"config": {}, "class_name": "Zeros"}, "kernel_constraint": null, "trainable": true}, "name": "dense_1", "class_name": "Dense", "inbound_nodes": [[["flatten_1", 0, 0, {}]]]}, {"config": {"activation": "softmax", "name": "activation_42", "trainable": true}, "name": "activation_42", "class_name": "Activation", "inbound_nodes": [[["dense_1", 0, 0, {}]]]}], "name": "resnet", "input_layers": [["input_1", 0, 0]], "output_layers": [["activation_42", 0, 0]]}, "class_name": "Model", "keras_version": "2.0.6", "backend": "tensorflow"}